data/weights/correspondence_weights.pt (torch, 355643 bytes, 10 tensors)

module.0.module.0.bias f4 [64]
00000000: a7b1 a2bd 9795 cebd 8b03 9a3d 3f8c 503e
00000010: 3e7b 743e 4456 edbd 6586 5ebe f49e 803d
00000020: b8b3 763e 19a3 063e e5e3 35be ddf4 fbbd
00000030: 5aba d6bd f467 42be 9278 833e 98f4 c8bd
00000040: 2874 94be e23c cc3d 4a89 dfbd 06e0 9cbd
00000050: 95e1 41be 24ef 49bc 164c 36be 796f 233e
00000060: 3bf8 8bbd a5af 82bd cdef 203e ff50 303e
00000070: 7eed 203e 182c 51be 4977 dcbd 6651 203e
00000080: 0936 de3d fd31 043e cf32 773e f1fa bf3d
00000090: b1bc e43c 71db aa3d 6b19 913e f90c 913e
000000a0: ff08 09be 68c1 393e 9a4e bfbb 9cac 393e
000000b0: b634 efbd d216 e7bd 8e95 8b3e bc54 503e
000000c0: 073e 00be 7ed0 ac3c 6b6a 42be 2a10 603e
000000d0: edf7 083e 9f6a c6bd 2b97 6dbe 595b 17be
000000e0: 25d1 283e dd4d 7bbd 5792 843e ec69 5e3d
000000f0: 71e1 0b3d ae4f a2bd 07ea 32be ea03 bdbd
-0.07944041 -0.10087126 0.07520207 0.20366 0.23875138 -0.115887195 -0.21730955 0.06280318
0.24091995 0.13148154 -0.17762716 -0.12302563 -0.104847625 -0.18984967 0.25677925 -0.098122776
-0.2899487 0.0997255 -0.10914858 -0.076599166 -0.18933709 -0.012325082 -0.17802462 0.15960492
-0.068344556 -0.06381158 0.15716477 0.17218398 0.15715596 -0.20426977 -0.10764939 0.15656051
0.1085015 0.12909694 0.24140476 0.09374035 0.027922006 0.083426364 0.28339705 0.2833021
-0.13382338 0.18140185 -0.0058382275 0.18132252 -0.11679976 -0.112836495 0.2726254 0.20344824
-0.12523662 0.02109551 -0.18985908 0.21881166 0.13375826 -0.09688305 -0.23202197 -0.1478094
0.16486032 -0.061353553 0.25892898 0.054300234 0.034150545 -0.07925354 -0.17472087 -0.09229262

module.0.module.0.weight f4 [64, 11]
00000000: e9c9 0f3e 4d54 01be 7444 323e d2e7 7b3e
00000010: 9445 32bc 2887 2bbe 2721 fe3d 7f8c a9bd
00000020: 370d 28be 7d82 993d 13c3 e53d 4e8b 7ebe
00000030: dd6b 893e a936 dfbd 909d 013e f1aa 573e
00000040: 71f4 afbd 1b9e 80b9 ae11 813e 93f9 3131
00000050: c337 aabd b725 163e e1a5 09be 9fad 42be
00000060: fe9d 183e 9beb 8bbe de43 9c3e 1aa1 fbbd
00000070: 87ce ddbd 0768 47bd 6795 0e2f a474 f33c
00000080: 9ab1 acbc 3774 29be 3dbf 8c3e 0d71 c7bd
00000090: c1c5 9d3d edd1 693e 17d1 8eba dde6 4b3e
000000a0: 0c3f 5d3e a8d1 78be dcea 243e 0d0c 92b4
000000b0: c9af 42bc 1cfa 943d 1928 5abb e814 383e
000000c0: ed33 483e f6bf 22be 7a0e 0d3e 9cb6 8f3e
000000d0: 5616 5d30 2926 16be 20f2 afbd 8bf4 32bd
000000e0: e455 16be 2696 0d3e f8b6 22be fbcf 653e
000000f0: a350 0dbe 3472 2f3e 14b2 14be e3a8 2ebe
00000100: b9b5 183e 2f34 7abe dab2 19be d48d 843d
00000110: ab69 2d3e 6679 663e 93b5 91be 66d9 8b3e
00000120: 16d6 97be 9c49 0abe 5bc9 0abe b3eb 75be
00000130: c256 523e b4ee 88be 4ec5 f73d 6fca 253e
00000140: dd1e 9e3d e895 6f3e fb6b c53c d193 81be
00000150: 33c7 13be 2ece ab3d 0403 c9af 6b75 32bd
00000160: 0abf c93d cdfe c5bd 908b 0d3e 9603 a23d
00000170: 0bc9 09be 0eb2 60bd 155a 91bd 15fd 81bd
00000180: f4fb 723e cc72 3bbd 1152 96bb bc0f 943e
00000190: 3cbf 17be a293 473e f29b 3abe 79fe 953d
000001a0: ed43 6fbe 01b2 d53d 9846 2f3e a336 6c3e
000001b0: 9f17 2a3a ed4a 1ebd 1fcc 623e 05cb b33d
000001c0: b164 77bd 1993 1ebe 4b0f 293e 0c1f b0bd
000001d0: 3cb6 82bd a683 0cbe 89fb 5dbe 5657 a9bc
000001e0: 9b4d e9bd 689b 85be 1d41 c0bd d622 853e
000001f0: 440f 7ebc 3c6f 78be 2f87 453e 34b7 113e
00000200: 2808 ebbd 74bd 3f3d 6318 803e 7416 17b1
00000210: 7a8b d7bc d290 403e 5670 19bd 2042 4a3e
00000220: 93b6 21be 7b41 743c 0e1c 4a3e 6504 84be
00000230: e2fa b1b3 af61 8a3d 72c8 e8bd f35e 96bc
00000240: 778b 90be e9e2 cebd 59f5 733e e49d 5c3c
00000250: b9ef 383e c605 673d 3330 5dbe defd 63be
00000260: 6f79 34be dfd5 56be ea69 81be 43ae d63c
00000270: 4bd6 1f3e b50a 03be 9119 ad3c 734e d13d
00000280: 4cc2 d9bd 1074 953d e11f b1bc 3a89 d2bd
00000290: 2fc9 91bd 1844 723e 7440 5c3b 1d7c 25be
000002a0: 7567 34be ec8b 8cbe 5818 c5bb e791 7abd
000002b0: 6e32 a5bd 6060 7fbe 2acd 57be d47d 483c
000002c0: 7ce2 673d 35ef dd3d 2794 8cbe 1d4e 9f3a
000002d0: fd5f cd3d cbcd e0bc 55f5 503e 00dd abbd
000002e0: df04 303e 8735 bfbc 869b 86bd 17f9 aabd
000002f0: f3a6 3d3e 835f d03c 3fb9 983e 3859 0c3e
00000300: f6c7 21be 294e 953e 7b58 65be 9697 613e
00000310: 7508 8e3d 486b 373e 4bf8 46be 8473 2ebe
00000320: a7c9 ed3b 558b 4cbe 667b 113e fdfd 80be
00000330: 4300 b8bd d067 3e3d 19f6 013d dffc da3c
00000340: 745d 4aba ebeb ecbd c6bc 0abe 5e32 2f3e
00000350: b1f0 3abd e2ce 79be d579 bcbd d39a 263e
00000360: df69 84be 3cf8 1cb9 95b1 5c38 5511 19bd
00000370: 3e4c 843e bfd6 053e 508b 803e 44e8 adbb
00000380: 9cb3 953e 493e 2e3e e5ad 413e fd51 adbd
00000390: 1d8f a735 5ee4 dbbd 87f7 d4bd 4439 4e3d
000003a0: 75ff 943d ae8d 823e c107 65be cb82 1dbd
000003b0: 136c 32be 4041 dbbd 86db 52bd 1677 bb3d
000003c0: 0c8a 763e a4ee 913c 903d 27be 2887 1ebe
000003d0: be6e 56be 75ac f7bd 7453 e93b f594 97be
000003e0: abe8 b7bd 97d2 14bd 0901 9dbd 396b 2e3e
000003f0: e327 053d d2fc 493c 0263 09be 6fc9 75be
0.14041866 -0.12629814 0.17408925 0.24600151 -0.0108808465 -0.16750777 0.12408667 -0.08278751
-0.16411291 0.07495592 0.11218848 -0.24857828 0.26840106 -0.108990975 0.12657762 0.21061303
-0.085915454 -0.0002453186 0.252088 2.5898756e-09 -0.08311417 0.14662825 -0.13442184 -0.19011544
0.14904019 -0.2732819 0.3052053 -0.12286587 -0.108304076 -0.048683193 1.2967903e-10 0.029718705
-0.02108078 -0.16548239 0.27489653 -0.097383596 0.07703734 0.22833987 -0.0010896054 0.19912286
0.21606082 -0.24298728 0.16105217 -2.7203387e-07 -0.011882731 0.07274267 -0.003328806 0.17976725
0.19551058 -0.1589354 0.13775054 0.28069007 8.0431073e-10 -0.14662994 -0.085911036 -0.043690246
-0.14681202 0.13826808 -0.1589011 0.2244262 -0.13800292 0.17133409 -0.14521056 -0.17056613
0.14913072 -0.24433969 -0.15009633 0.06472364 0.1693484 0.22507247 -0.28458843 0.273143
-0.29655522 -0.13504642 -0.13553374 -0.24015693 0.20540908 -0.26744616 0.1209818 0.16190504
0.077207305 0.23397028 0.02409934 -0.25308087 -0.14431457 0.08388935 -3.656383e-10 -0.04356901
0.09850891 -0.0966774 0.1382277 0.0791084 -0.13455598 -0.054857306 -0.0709726 -0.063471
0.23728925 -0.045763776 -0.00458742 0.28918254 -0.14819044 0.19489911 -0.18223551 0.073239274
-0.23365755 0.10434342 0.17116773 0.23067717 0.0006488505 -0.038645674 0.22148179 0.08778957
-0.06039876 -0.15485801 0.1650974 -0.08599672 -0.06382415 -0.13722095 -0.21677984 -0.020671528
-0.11391755 -0.26095128 -0.093874194 0.2600314 -0.015506569 -0.24261183 0.1928985 0.14230043
-0.11476165 0.046811536 0.25018606 -2.1986155e-09 -0.026311625 0.18805245 -0.037460648 0.19751787
-0.15792303 0.01490819 0.19737265 -0.25784603 -8.28784e-08 0.06756913 -0.11366357 -0.018355822
-0.28231403 -0.101018734 0.23824061 0.013465378 0.18060197 0.05640199 -0.21600418 -0.22264811
-0.17624448 -0.20980023 -0.2527612 0.026206141 0.1560909 -0.12797053 0.021130355 0.10220041
-0.10632762 0.07297528 -0.021621646 -0.1028008 -0.07118451 0.23658788 0.0033607753 -0.16160627
-0.1761759 -0.27450502 -0.006014865 -0.0611743 -0.08066259 -0.24939108 -0.21074358 0.012237031
0.056612477 0.10836641 -0.2745678 0.0012154017 0.10028074 -0.02744188 0.20406087 -0.08391762
0.17189358 -0.023340954 -0.065726325 -0.08348291 0.18520717 0.025436169 0.29828832 0.13705909
-0.15798935 0.29161194 -0.22397034 0.22030482 0.06935207 0.17912018 -0.19430654 -0.17036253
0.007256705 -0.19975026 0.14207229 -0.25193778 -0.08984425 0.046485722 0.031728838 0.026731906
-0.0007719614 -0.11568435 -0.13548574 0.17109057 -0.045639697 -0.24395326 -0.09202925 0.16269998
-0.25862023 -0.00014969794 5.2617474e-05 -0.037370045 0.25839418 0.130702 0.25106287 -0.0053072292
0.29238594 0.17015947 0.18913992 -0.08462904 1.2484121e-06 -0.10736917 -0.103987746 0.05034758
0.07275287 0.25498718 -0.22366239 -0.038454812 -0.1742404 -0.10705805 -0.051478885 0.09153573
0.24076098 0.017813988 -0.16332078 -0.15481246 -0.20940682 -0.120934404 0.007120544 -0.29605833
-0.08979925 -0.036333647 -0.07666213 0.1703309 0.032508742 0.0123283435 -0.13416675 -0.24002622

module.0.module.2.bias f4 [64]
00000000: 80c9 d33d dab3 96bd dd64 6bbd bd39 453d
00000010: ed95 233d 92ad 99bd 5dac 88bd c253 a1bc
00000020: 6551 e13d e195 36bd 7e34 71bd b83f 253c
00000030: e6f4 bfbb aac5 75bc be36 a73d 6f20 d93d
00000040: 9fe6 513d 2a08 cabd 82e0 543d ff4e 7dbd
00000050: 0155 833d f011 ddbc 5970 78bc dee5 bd3d
00000060: ba73 03bb d6cb cc3d 3210 d63c f410 843d
00000070: 68e8 d2bd 581f 5b3d 9c76 ac3d 544b 9bbc
00000080: 1d13 f4bd 07ce fd3d 5b58 35bd eb25 e23d
00000090: 0f3a 4e3d ecbb d43c 5a45 f13d 8a3e 64bd
000000a0: 4eb0 f83d 7e04 cbbb d22d b93d cdb2 023e
000000b0: 614a 523d 353f 8a3d a7e1 efbb 1d5a d3bd
000000c0: 31cc a9bd b1db fb3d cbb5 c33c 5bed 123d
000000d0: 1655 163d 5ed4 223d 69e9 43bd d17e d73b
000000e0: ca60 573d 4ed8 6fbd 85d2 a9bd 0d0a 7c3c
000000f0: deb3 d1bd 4656 463c bc35 b1bd e575 0bbc
0.103411674 -0.07358523 -0.057469238 0.048150767 0.039937902 -0.07503809 -0.06673501 -0.01969326
0.11001853 -0.04457653 -0.05888795 0.0100859925 -0.0058580516 -0.01500074 0.08164738 0.10601889
0.051245328 -0.098648384 0.05197192 -0.061842915 0.064126976 -0.026986092 -0.0151635045 0.09272359
-0.0020057992 0.09999816 0.02613077 0.06448546 -0.10298234 0.05349669 0.084210604 -0.018956818
-0.11917708 0.12392812 -0.044273715 0.110423885 0.050348338 0.025968514 0.11780806 -0.055723704
0.121430025 -0.006195604 0.09041943 0.1276352 0.051340465 0.06750337 -0.007320601 -0.10319922
-0.082908995 0.12297762 0.023890397 0.03587089 0.036702238 0.03975331 -0.04783002 0.006576397
0.05258254 -0.058555894 -0.082921065 0.015383256 -0.10239385 0.01210553 -0.08652827 -0.008511995

module.0.module.2.weight f4 [64, 64]
00000000: 1607 503c 310b 8fbd 2f45 3bbd 0ba1 edbc
00000010: 6521 9d3d a2b8 9f3d 6c1b abba 04fe f53c
00000020: f6bd 0cbd fb65 c93d 6650 8f3d a8ff 1b3d
00000030: 5a4c 4c3c 3585 453d d5f4 fb3c ce02 b43b
00000040: 1a85 b03d fa71 e93d 5540 403d 2995 c3bd
00000050: 7a80 db3d 51ab 1b3d c36c 9bbd ddaa 0bbe
00000060: 88ae 09be fe57 cbbd ffc7 08bd e54b 923d
00000070: 5bd6 d2bd 2a8a cbbc a0af bcbd 5ba3 dc3d
00000080: 75e2 693d 7068 dbbc 9de0 5f3d f80b 30bd
00000090: 0630 543d 971b 1c3d 4c62 34bd f05d 603d
000000a0: 0d98 e4bd b41e 003e b4f8 a3bd 0a8b ac3d
000000b0: 1b1d edbd e22d a63d 70b7 803d 9466 efbc
000000c0: d4da 9c3b 0d6b 763c d7ca 603c cd6f a83c
000000d0: e235 06bd 1c26 183d 907e 943c 63f9 9d3d
000000e0: b178 8f3d 3404 e0bd 01af 563d 6c3b a83d
000000f0: fdf2 9b3c 373f cabb acf0 483d 1510 acbc
00000100: 42fc b33a c8ef 033e d290 6b3c 8a01 3ebd
00000110: d5e2 c5bd 5fbe 2abc 015c 5239 23b9 e23d
00000120: d4b3 aabd a9f9 033e 5bce 3b3c 186d acbb
00000130: 422c 46bd 7685 53bd 8b3c 393d f3aa 5dbc
00000140: 7b18 c6bc fc47 803c 8bf5 c33d 1e68 57bd
00000150: 2ea2 a6bd 6195 db3c b85d 7c3d ba48 983d
00000160: ac40 e83c f620 9ebd 6a2f 5ebd 498f a8bd
00000170: 5e77 5a3d 4a43 b03d 1ab8 b3bd 3e3c e83d
00000180: 09b2 623d 2d59 723c e3b9 a0bd 1958 173d
00000190: e429 b73d 5aa8 da3d 1542 9abd 92bd b73d
000001a0: bc42 e4bd 848a f63c 0737 24bd 657a ef3b
000001b0: fba2 19bd 0933 ddbd 90ba e43d 2617 003c
000001c0: 4247 48bb 3c6a 123d b3a6 99bc 90d3 153d
000001d0: 2a0f 363c 1cba 383d af19 6c3d 155c 05bc
000001e0: face db3d 080a 143d 0da8 b2ba ad7e e83d
000001f0: d40c d0bd c9dd afbd 0527 28bd fc5c 5bbd
00000200: badc 28bd a673 febd 2cce 993c 7a59 073d
00000210: 0075 613d 3bd4 b73d 339e 30bd 9fdc 80bd
00000220: fefe a0bd 76a6 b93d 0b3e 29bc 5382 6c2e
00000230: ec1d 84bd 4681 4331 14f2 b03d 8998 323d
00000240: 06c7 38bd 40c3 b2bd eac0 943d 21c0 1cbd
00000250: 9aeb 7ebc b4a9 9a3d 10cf 93bb 498b 43bb
00000260: 9466 9f3b e159 ca3c 7972 18bd c0c8 99bd
00000270: ef34 a73d 1f2b 0bbd fa13 94bd 2883 473d
00000280: eb45 8cbb f1e6 163d 122e babd eb32 ebbb
00000290: 19d3 a2bd b559 90bd beea 20bb d1ce 36bc
000002a0: 71f2 68bd 2a6a fcbc 2323 97bd 3c7f 103d
000002b0: f8b1 bb3c d23a abbb e031 a53d 8675 993d
000002c0: d84a 633d fa5f 8a3d b459 a3bd 0edc d5bd
000002d0: 0b79 a03d 4643 dabc bf50 b4bd c838 40bd
000002e0: c733 0d3d 9b91 6cba 9589 413b 16c4 0bbd
000002f0: adfe 323d 13a7 aa3d b007 28bc e486 7ebd
00000300: 3d36 06bc 3ebf 9fbd 7445 783d daeb 823c
00000310: b10c 14bd 312b d83c 877c 92bd 5167 4fbc
00000320: fc6d ec3d c1c6 8e3d 8ebc cf3d 78ff d33a
00000330: bd3b 4b3d 634a a33d fa77 eb3d 8a47 c83c
00000340: ea16 f5bd 70db 50bc b407 a43d 37f2 263c
00000350: 237e e83d fc3e b23d 7afa cbbd 6c75 383d
00000360: d940 e13c e546 2ebd 5c69 94bd dbf4 973d
00000370: bfb4 92bc b471 2cbd ab9c ab3d 4c30 86bd
00000380: feb8 713d 8690 2abc e57a 983d 95ff d0bd
00000390: fdad eb3c 311c eebd e27a 93bc c887 6abc
000003a0: b9c1 2abd db82 bc3b 3bd9 a2bd 2035 033e
000003b0: b057 e0bc 0117 f8bd 0934 973d 3f75 ee3d
000003c0: b20c 91bd 14d7 3f3d 8450 4a3d a478 46bd
000003d0: 83ab e2bd e9a5 693d e64d 693b 4678 dd3c
000003e0: 29eb a3bd 1a6e f63d a804 31bd 6302 afbc
000003f0: eaaa b3bd b696 8ebd 6e75 9ebd 6cc0 793d
0.012697002 -0.069845565 -0.045720275 -0.029007455 0.07672385 0.07798888 -0.0013054437 0.03002835
-0.03436085 0.09833904 0.06997757 0.03808561 0.0124693755 0.04822274 0.030756393 0.0054934984
0.08619137 0.113986924 0.04693635 -0.095499344 0.10717864 0.038005177 -0.07589104 -0.13639398
-0.13445485 -0.099288926 -0.033393856 0.07143382 -0.10294791 -0.024846155 -0.09213185 0.10773345
0.057100732 -0.026783198 0.054657567 -0.042980164 0.05180361 0.03811225 -0.044039056 0.054777086
-0.11161814 0.12511712 -0.08006421 0.08424957 -0.11577817 0.0811422 0.06284988 -0.029223718
0.0047868285 0.015040171 0.013720236 0.020561123 -0.03276623 0.03714572 0.018126756 0.07713582
0.07005442 -0.10938302 0.05241299 0.08214459 0.019036764 -0.0061720866 0.049057648 -0.021003762
0.0013731795 0.12884438 0.01437779 -0.046388187 -0.096624054 -0.010421365 0.00020061435 0.11070468
-0.08335081 0.12888207 0.011462773 -0.0052620284 -0.04838205 -0.05164095 0.045223754 -0.013529527
-0.024181595 0.015659325 0.09568318 -0.05258953 -0.08136402 0.026804628 0.061612815 0.074357465
0.02835115 -0.077211305 -0.054244436 -0.082304545 0.053336494 0.08606584 -0.08775349 0.11339615
0.05534557 0.014791769 -0.07847955 0.03694925 0.08943537 0.10676642 -0.075321354 0.089717045
-0.11145541 0.030095346 -0.04009154 0.0073082917 -0.037508946 -0.1080075 0.111683965 0.007818019
-0.003056005 0.035745844 -0.018756246 0.036578715 0.011112014 0.045099363 0.05764168 -0.00813963
0.10732837 0.03614238 -0.0013630405 0.113522865 -0.10158697 -0.08587224 -0.041052837 -0.053555474
-0.041226126 -0.12424402 0.018775068 0.033044316 0.05504322 0.089760266 -0.04311962 -0.0629208
-0.07861136 0.09064953 -0.010329734 5.377594e-11 -0.0645102 2.8449718e-09 0.08639923 0.0436025
-0.04511168 -0.08728647 0.07263358 -0.038269166 -0.0155591015 0.075518996 -0.0045107678 -0.002983766
0.004864523 0.02470106 -0.037218545 -0.07508993 0.08164393 -0.03397667 -0.07230373 0.048709065
-0.004280796 0.036841337 -0.090908185 -0.0071777008 -0.0795042 -0.0704836 -0.002455398 -0.011157707
-0.056871835 -0.030812342 -0.07379749 0.03527759 0.02291201 -0.005225518 0.080661535 0.07493119
0.0554913 0.06756587 -0.07976094 -0.10442363 0.07835587 -0.026643407 -0.088044636 -0.04692915
0.034473207 -0.00090243825 0.0029531468 -0.03412255 0.04369991 0.08332648 -0.010255739 -0.06214036
-0.008191642 -0.078001484 0.06061311 0.015981603 -0.036144916 0.026387783 -0.07152658 -0.01265891
0.11544415 0.06971503 0.10143386 0.0016174158 0.049617518 0.079731725 0.11497493 0.024448175
-0.11967261 -0.0127476305 0.08009282 0.010189584 0.11352184 0.087034196 -0.09959884 0.045033857
0.027496742 -0.04254808 -0.07246658 0.07419749 -0.017908452 -0.042100623 0.083794914 -0.06552181
0.059014313 -0.010410434 0.07445315 -0.102049984 0.028769488 -0.11626471 -0.018002931 -0.014314599
-0.041688655 0.005752904 -0.0795159 0.12813234 -0.027385563 -0.12113763 0.07382972 0.11643457
-0.070824996 0.046835974 0.049393192 -0.048454896 -0.110678695 0.05704299 0.003559941 0.02703489
-0.080038376 0.12032719 -0.04321733 -0.021363443 -0.08772834 -0.069623396 -0.07737242 0.060974523

module.0.module.4.bias f4 [256]
00000000: 1a7b 48bd 1067 d93d 0cdc dbbd b97a a73d
00000010: e87d 7cbd 5909 f93d 2d57 1e3d 5d63 923d
00000020: 0345 97bd acfa 04be 46e8 14bd 0e0a aebc
00000030: b28e aa3d b8c3 e6bd 6b7a d8bd 7733 113d
00000040: 0727 643d 0927 b33d ffe6 b5bd 1dfd 99bc
00000050: a728 3c3d e7ee 0e3c 28b5 cf3d a3f6 e93d
00000060: cd46 a3bc 6468 e136 4c50 a5bc b866 febc
00000070: 4546 7c3d 89eb 783c b1d1 f5bc b3e1 35bd
00000080: 6417 df3b 9ed0 67bd 7d4a f53c 8e18 8033
00000090: 4c36 b73d cc26 78bb efa3 213d c6d0 13bd
000000a0: 737c 2ebd 32de b33d a274 e8bc c3f2 50bc
000000b0: fc7c 943d 10fc 89bd a769 a1bd 0b15 c0bd
000000c0: 49ce 473d 8328 8d3d 4a4c 853d 693e e8bd
000000d0: 2d13 ddbd 1e49 7e3c 9c32 fc3c 53d5 f73d
000000e0: 9f39 bc3d 2f78 81bd e314 a03b 17c1 5bbd
000000f0: 454a b2bd 6f4a e13d c39d 903d 9a04 63bd
00000100: c6d8 a13d fcad d43d fd1b de3d 8370 bbbd
00000110: e288 d03d 34d1 383d 7b0f 17bc 366f a0bc
00000120: a94d 4d3d 3c8b 7d3d 23ea b23d d8a1 5d3c
00000130: 2126 05bd dfd3 9cbd a313 d0bb 60ef 77bd
00000140: 28b8 013d b7f9 8dbc 6987 b73d b987 fe3b
00000150: 88d9 e63d ded8 c63d f7d3 f53d e80d c6bd
00000160: 1159 17bd f940 893d da7a efbc bbf2 ec3d
00000170: d3c4 29bc faa7 893d f6ba 84bd 18f0 593d
00000180: 228a f63c 1cf7 753b 1d31 afbd dec0 3d3d
00000190: 13a2 e4bd 4ee1 8abd 2f89 cf3d 769f 00bd
000001a0: 1d36 f9ba e642 aa3d d4ef ca3d 64f1 8f3c
000001b0: 8e85 e0bc 7d13 2ebd 7902 d4bc 96f7 823d
000001c0: 8d7a 91bb b12a f8bc 29a6 743d 3ea5 b33d
000001d0: 7964 c93c 72e8 ac3d 5f3d 34bc bee5 1b3d
000001e0: f427 40bd 8435 223d 81ed d0bc 2441 033d
000001f0: dd9f b13d a688 9e3d 35e3 1fbc b181 8f3d
00000200: 4f3e fd3d b151 66bd 5ef7 5fb9 d8f8 7d3c
00000210: e362 263d c735 19bd b87c f039 612c 91bd
00000220: 931a 9dbd b2cf 47bd d543 47bd 151b 023e
00000230: 0fbb 1fbc f9c6 dc3d a3e3 5730 b14e 083d
00000240: f4a9 b5bd b6f9 a9bc 02a6 44bd 0321 27bc
00000250: 1bad 01bd 26b6 26bd ddab 53bd f5bc 483d
00000260: 3df1 c73d 0f32 803d f8c3 d4bc d5bc 693d
00000270: f772 1dbd 9d05 82bd 6ffb febd 6fd8 babd
00000280: 8b61 e5bb 2ee5 d4bc c5e9 a3bd 2f72 1cbd
00000290: 91b8 ce3d 48fb 94bc b440 2dbd 0a22 adbd
000002a0: 4a5c 87bb e81a 8c3d dfe2 bc3c f511 9bbd
000002b0: d222 2abc ba20 503c 26ae e2bc 9585 b4bd
000002c0: 145b c1bd 39fd e9bd a0c9 c43d e64b ea3d
000002d0: 351c 473d d39a d93c 7afc 80bd 1d9c 20bc
000002e0: b8f9 1e3d 7b4f ec3d 3e39 013b 93a1 393d
000002f0: c3f9 c7bd 9a1e 763d fc62 05bd 435f e3bc
00000300: a921 9cbd 7c95 ad3d 455f 71bd d26a 26bd
00000310: f853 e0bd 55bf b63c 542e b33d bc41 37bd
00000320: 89e8 123d 5999 9dbd 534d 9c3c 1707 8ebd
00000330: 87b3 0b3d 94ec 8fbd f3cf ca3d 27ca a1bd
00000340: a291 e9bc 1936 d03d dc80 b93d a149 e3bc
00000350: 38b3 8ebc bd82 933d afe3 bcbb b8b6 323d
00000360: e257 9cbd bf75 0fbd 5da2 6bbd 3a9d fabd
00000370: 5b12 f33d 9dac 803c 854f bebd 2c99 46bb
00000380: fa1e d33d ed3c 6e3d 2e75 adbd 4af1 2b3d
00000390: 43b9 9bbd 2013 193d 486a ee3d 5592 49bd
000003a0: 9791 903d 4643 39bd a268 7bbd 0a53 003d
000003b0: db56 963c dd24 de3d 377b 8f3c 6b62 d93d
000003c0: 72d6 283d bd53 88bd 603f c5bd f39e bebd
000003d0: 44ca 64bc 50ca 93bd 74a1 91bd 5f14 7ebd
000003e0: 7fc6 21bd 5fbe d73d e138 ccbd 7f08 803d
000003f0: 874d a13c f095 503d c559 f5ba ed9f 0c3d
-0.048945524 0.10615361 -0.1073533 0.08177704 -0.06164351 0.12159986 0.038657356 0.07147858
-0.0738621 -0.12986249 -0.036354326 -0.021245029 0.08327998 -0.11267799 -0.105702244 0.03544947
0.055701282 0.0874768 -0.0888195 -0.018797452 0.045937207 0.008723951 0.10141975 0.11423995
-0.019931221 6.717675e-06 -0.02017989 -0.03105484 0.06159045 0.015192875 -0.030007215 -0.044404697
0.0068082083 -0.056595437 0.029942745 5.964931e-08 0.08945903 -0.0037864922 0.03946298 -0.036087774
-0.042599153 0.08782615 -0.028375927 -0.012753191 0.072504014 -0.0673753 -0.0788148 -0.09379014
0.048780713 0.068924926 0.065086916 -0.11340029 -0.10794673 0.015520362 0.030785851 0.12101235
0.09190678 -0.06321751 0.0048853024 -0.05365094 -0.08705572 0.11000525 0.07061341 -0.05542431
0.079026744 0.103847474 0.10845182 -0.09152319 0.10182358 0.045121387 -0.009219999 -0.01958428
0.05012289 0.061900362 0.08736064 0.013527356 -0.032507066 -0.07657599 -0.006349997 -0.06053102
0.031669766 -0.017330987 0.08961374 0.0077676442 0.112719595 0.09709333 0.1200332 -0.09670621
-0.036950175 0.06701846 -0.029233385 0.11569735 -0.010361868 0.06721492 -0.064809725 0.053207487
0.030095164 0.0037531322 -0.085542895 0.04632651 -0.11163726 -0.06781255 0.101335876 -0.031402074
-0.0019013319 0.08313541 0.09909025 0.017571159 -0.027407434 -0.042499054 -0.025880085 0.063948795
-0.004439658 -0.030293794 0.059728775 0.08771752 0.024584042 0.08442773 -0.01100096 0.038060896
-0.046913102 0.039601818 -0.025503876 0.032044545 0.086730696 0.07740907 -0.00975876 0.070071585
0.123654 -0.05623025 -0.00021359089 0.0155012235 0.04062165 -0.0374048 0.0004586929 -0.07088543
-0.07671084 -0.048782058 -0.048648674 0.12705643 -0.009749188 0.107801385 7.8540036e-10 0.03327817
-0.088703066 -0.020748954 -0.04800988 -0.010200742 -0.031659227 -0.040701054 -0.051677573 0.04900833
0.097628094 0.06259548 -0.025972351 0.05706485 -0.038439717 -0.06348727 -0.12450301 -0.09123313
-0.0070001534 -0.025988188 -0.080035724 -0.03819483 0.10093797 -0.018186226 -0.042298034 -0.08453758
-0.0041308748 0.068410695 0.0230574 -0.075717844 -0.010384278 0.012703115 -0.027670931 -0.08814541
-0.094412 -0.114252515 0.096087694 0.11440258 0.048610885 0.026563084 -0.06298156 -0.009802845
0.03881237 0.11538597 0.0019717957 0.045320105 -0.09764435 0.060087778 -0.032565102 -0.027755385
-0.07623608 0.084757775 -0.058928747 -0.040629216 -0.10953516 0.022308031 0.08749071 -0.044740424
0.035866294 -0.07695264 0.01907984 -0.06934946 0.034106757 -0.070275456 0.099029444 -0.078998856
-0.028511826 0.10166568 0.09057781 -0.02774507 -0.017419443 0.07202671 -0.0057644467 0.043631285
-0.0763395 -0.0350244 -0.05752789 -0.1223702 0.118687354 0.015707308 -0.09292511 -0.00303037
0.10308643 0.058163572 -0.08469616 0.041978158 -0.07603695 0.037371755 0.11641365 -0.04921182
0.07059019 -0.045230173 -0.061379083 0.031329192 0.018351963 0.10846875 0.017514808 0.10614475
0.041220136 -0.06656597 -0.096312284 -0.09307661 -0.0139642395 -0.072163224 -0.07110873 -0.062031146
-0.03949594 0.10534357 -0.09971786 0.062516205 0.019690288 0.05092424 -0.001871877 0.034332205

module.0.module.4.weight f4 [256, 64]
00000000: 9183 5ebd ed33 5eba 1f89 513c cb76 c03c
00000010: 8f5b 1cbc da58 9ebc c902 363d 6049 2c3d
00000020: cdc5 d03a 5c63 5dbd c69f 0c3d 9b23 98bd
00000030: 4b46 90bd 654c 603a bec4 60bd 843d 87bd
00000040: b5fa 8abd 91cb 3cab 9eae 32bc bb02 70bd
00000050: d8fe 86bb ed94 bdbc e0fc 9cbd 1e28 9e3d
00000060: c283 443a d27e 78bc 5167 3abd 8125 91bc
00000070: 952c 81bc 6e61 56bd 9ab8 86bb fcd9 85bc
00000080: 7f28 28bd 0ce2 e93b 8a3f 7e3d be43 b0ba
00000090: b489 873d 16d9 36bc 8c8a 493b 18f9 dcbc
000000a0: 3c06 64ba bdc9 933d 64a4 9d3d 9bc9 26ba
000000b0: 7c09 3ab8 e75e 44bd 7883 1abd e282 8db7
000000c0: db32 2730 3813 78bd 139a e0b7 6c30 9d3d
000000d0: 3d2f a9ba 63fc 90ba 377f bab3 ff77 123c
000000e0: 02a0 e233 8b71 823d bdcf 693d b1ad 11bd
000000f0: f9ed 9c3d 5fcc 813d 0471 8fbd e36f 673d
00000100: b5ab b3bc fd42 803d dd87 31bd cfcb 7dbd
00000110: 4adb 3c3d cef6 81bc cf9b d8bd a88c a9bd
00000120: 31ab 013e 84c5 bb3d c6be b13d a64c 2bbc
00000130: aeb2 063e 59a1 65bd f3e6 e33d 4976 4dbd
00000140: 6837 dc3d 9087 98bc 0b68 f7bd 9475 98bd
00000150: c553 42bd 659f 61bd 25f0 ff3d 2071 b53d
00000160: 5618 d93c 7cba 9fbd feaf b0bd 39fc 44bc
00000170: d41b e0bd 3e0a 583d ab00 d9ba d183 843c
00000180: 3fa7 fabb e38e fdbd 7c56 2abd 8eb5 30bd
00000190: 9440 00be 48d4 ac3c 72ae 6fbd 803e e9bd
000001a0: 5017 283d 116b 95bc 421e 04bd cc03 093e
000001b0: 27f2 02bd eaf5 553d 73d7 d0bd b2a2 a73d
000001c0: 74be 383d 94d7 65bd 70b7 5dbc 9fb5 ba3d
000001d0: 7263 e13d 8910 6fbd 28a0 91bd 6757 ea3d
000001e0: 74f2 17bd 92e8 67bc de45 383b 842c e93d
000001f0: 89cf eaba 9451 84bd 54e6 5c3c 3f4b 27bc
00000200: 8df1 a9bd 483b f63d 400c a33d 1d93 9cbd
00000210: a2df 91bc decf 803b 2f1f eab8 5ea2 51bd
00000220: c9e6 61bc fafc 4ebd 27d0 28bc 5c3d c7bb
00000230: 1fe8 3abc 9951 f83b 8a7d f6bd 8570 c63d
00000240: f013 473b ed28 793d ac97 2d3d e3cf 513d
00000250: 1093 34bb 40e8 15bc 87db 86bd 9145 02bd
00000260: 5fa6 88af 9141 c83d 370c f63c 89b5 3f3c
00000270: 26a8 a0bc c097 8e3d 5500 66bd 2de4 4b3d
00000280: c067 1f3d ad88 62bd a7f3 f53c 1c5b 423d
00000290: c02f bd3d 08f0 8baf 6172 8f3c 7f3e b33c
000002a0: 215b a83c 127b 243d 812b 723d 7dca 973d
000002b0: d1c1 5b3d 109d 82bd 41c6 363d 6234 d6bd
000002c0: e183 033b 5fdc 413d c638 d5bc 5dad dabc
000002d0: 939d d9bc 54b7 613c a231 8e3c 4139 2e3d
000002e0: 7d37 93bd 7be8 d03c 6ce5 57bd ea96 67bd
000002f0: 4077 d6bd f3d1 f1bd 18e2 733c 3d05 253b
00000300: adbc 983d 171b 453b ce0c 11bd 8b91 89bd
00000310: 01aa 9dbc 41d6 873d 8ec9 b2bc 067a d1bd
00000320: 6b10 243d 229d 73bd 0f15 b23b cc4b 40bd
00000330: db6c 413c 1c00 d3bc 1326 cbba 57fb 2fbc
00000340: 74cf 8b3d 2457 093d dabf 1fbd 3fec 033b
00000350: 1546 f4bc 7553 f1bb b3b6 583d bcb5 e6bd
00000360: 731d 3bbb 1bbf a3ba 54a7 f8bc 4356 82bc
00000370: 7f13 9039 e10a c4bc ecdf 67bd 8e36 e6bd
00000380: 2d24 a53c b2ca 49bd f5d6 9ab8 b064 9e3c
00000390: ee8d 203d 8cf5 953d aabf 28bd 03e6 17bd
000003a0: 5154 81bd d4ce 853d 8a81 dd3c 4481 f13c
000003b0: befb 733c edc9 d13b e543 c63c 664e a3bb
000003c0: 132a 1ebc 325f 5abd 8e6b 213d 91c1 9ebd
000003d0: e940 49bd 1138 373d b06e b9bc 6f40 9bbd
000003e0: f9fd f1bb 2d7d 43bd fd60 953d 2302 85bd
000003f0: 9f34 003c 109a 8bbd 3204 f73c 2e1d 7aba
-0.05432469 -0.00084763655 0.01278904 0.023494145 -0.009543314 -0.019329477 0.04443625 0.042062163
0.001592809 -0.054049835 0.03433206 -0.07428666 -0.07044657 0.00085563055 -0.054875128 -0.0660353
-0.067861 -6.707352e-13 -0.01090589 -0.058596354 -0.004119735 -0.023142302 -0.076654196 0.077224955
0.000749644 -0.015166955 -0.045508686 -0.017718079 -0.015768329 -0.05233901 -0.0041113617 -0.016339295
-0.041054245 0.0071375426 0.062072314 -0.0013447923 0.06618062 -0.011160156 0.0030752746 -0.026974246
-0.0008698439 0.07216213 0.07697371 -0.0006362439 -4.435469e-05 -0.04794207 -0.037723035 -1.6869457e-05
6.0826516e-10 -0.060565203 -2.6774627e-05 0.07675251 -0.0012907755 -0.0011061545 -8.68444e-08 0.008939742
1.055305e-07 0.06369313 0.05708288 -0.035566036 0.07662577 0.06337809 -0.07003978 0.056503188
-0.021932462 0.06262777 -0.04334246 -0.061961945 0.046107568 -0.015864756 -0.10576593 -0.08278781
0.1266296 0.091685325 0.08678965 -0.010455286 0.13154098 -0.056062076 0.111280344 -0.050161634
0.107527554 -0.018619329 -0.120803915 -0.07444301 -0.04744317 -0.05508365 0.12496976 0.088594675
0.026500862 -0.07799241 -0.08627318 -0.012023025 -0.10942808 0.052744143 -0.0016555985 0.016176136
-0.007649332 -0.12380769 -0.041586384 -0.043141894 -0.12524635 0.021097317 -0.058515973 -0.11388874
0.041037858 -0.01823953 -0.03225542 0.13380355 -0.031969216 0.052236475 -0.10197344 0.081853285
0.045103505 -0.056113794 -0.013532504 0.09116673 0.11005296 -0.05836538 -0.071106255 0.11442452
-0.037096456 -0.01415457 0.0028117816 0.11385444 -0.0017914633 -0.06460872 0.013482649 -0.010210811
-0.08298025 0.12023026 0.07961321 -0.07645247 -0.017806832 0.0039310297 -0.00011163798 -0.051180236
-0.013787934 -0.050534226 -0.010303534 -0.0060803127 -0.011407881 0.0075780866 -0.120356634 0.0968943
0.0030376874 0.060830045 0.042380974 0.051223647 -0.0027553476 -0.009149611 -0.0658484 -0.031804625
-2.485647e-10 0.09778131 0.030035121 0.011700996 -0.01961143 0.06962538 -0.05615266 0.049778152
0.038917303 -0.055306125 0.030023409 0.04745017 0.09237623 -2.5454505e-10 0.017510595 0.021880386
0.020551266 0.04015643 0.05912352 0.074116684 0.053651635 -0.063776135 0.044622663 -0.1045921
0.002006762 0.047329303 -0.026028048 -0.026693994 -0.026564395 0.013776619 0.017357651 0.04253507
-0.07188318 0.02550148 -0.052709028 -0.056540407 -0.10471964 -0.11807623 0.014885448 0.0025180124
0.07457862 0.0030075961 -0.035412602 -0.06717213 -0.019246103 0.066326626 -0.021824624 -0.10228352
0.04005472 -0.059476025 0.0054346393 -0.046947286 0.011805738 -0.025756888 -0.0015499018 -0.010741076
0.06826678 0.03353037 -0.039001323 0.0020129827 -0.029818574 -0.007364685 0.05290861 -0.11265132
-0.0028551489 -0.0012492867 -0.030353226 -0.015910273 0.00027480346 -0.023930969 -0.056610033 -0.11240874
0.020158852 -0.04926557 -7.383331e-05 0.01933512 0.039197855 0.07322225 -0.04119841 -0.03708459
-0.0631491 0.0653359 0.027039308 0.029480584 0.014891563 0.0064022453 0.024202297 -0.004983711
-0.009653586 -0.05331344 0.039409213 -0.077517636 -0.04913417 0.044731203 -0.022635788 -0.07580649
-0.007385012 -0.0477268 0.0729389 -0.06494548 0.007825046 -0.068164945 0.030153368 -0.0009541091

module.1.module.0.0.bias f4 [256]
00000000: a23e f83a 30b6 6a3a 4c9d 35bd cb7e eebc
00000010: 5b2b 6fbd 335b 363d 9b95 cb3c f4fc 843c
00000020: 5ebc 753d 9ed2 82bd 7a3a 543d 0ac9 033d
00000030: a3f7 1dbd 9f43 003d d963 3b3d 8e8e 38bb
00000040: c249 7fbd dc99 21bd 01ad 473d 4ed4 da3c
00000050: e3d1 52bd f411 6ebd 6058 3fbd 9f59 38bb
00000060: 092b 93bc 1f4c 0ebb 6600 32bd f30d 89bc
00000070: a7c4 5cbd 31ad 4fbd fe8b 4a3d 2bd7 69bc
00000080: 0d03 16bd c3c4 32bd 5ed0 67bd 14c3 8f3c
00000090: 5dd0 5f3d a523 5e3d 02e7 38bd f4ce b4bc
000000a0: e5cb 1b3c 3387 7c3c 2ae9 3bbc 32a1 95bc
000000b0: a458 aa3c 9d40 143d 09b2 abbc eed8 503d
000000c0: 228a 3b3d 0fbf 80bc 7103 39bd 1346 bf3c
000000d0: 5060 16bd f8fe c23c c037 a33b cc21 3abb
000000e0: 216f 693c 4b36 7d3c 0238 643d d419 f6bc
000000f0: 526d 713c c7f7 313d 07c1 ab3b 7d83 373d
00000100: cb2c 023d 822d f3bc aed4 203b 4820 89bd
00000110: 1960 213d 3163 b13c fb9e 6bbb 9211 343c
00000120: 06c0 f73c 8966 d83c bb35 70bc 523b c4bc
00000130: 8352 14bb a2a6 503d 1371 dcbb a4fb 7fbd
00000140: 1456 a13c d743 033c 1a46 c8bb b513 a73c
00000150: 4bee 363d 0202 473c 6201 16bd 3b1c 3abd
00000160: 0f5b c83c e6cf f03b f436 19bd 33f6 9ebc
00000170: fc77 04bc c048 aabc 2586 07bd 0d01 3dbd
00000180: c74d 63bc b012 733c 2c1a d0bc fab2 0cbc
00000190: 8eb0 1e3d 089b 873d b757 28bd 6c68 eebc
000001a0: afe3 02bb e000 ebbc 6f81 3f3d 024f 413d
000001b0: 026e ca3c 2f61 9e3b 2f81 2d3d 46a9 133d
000001c0: 38c9 5cbc 0583 13bd 0bb5 18ba fe22 02bd
000001d0: 1924 6abd 89ed 243d 6573 8bbc d012 8f3c
000001e0: 127f e4bc b1c2 3d3d e46c dfbc ff88 15bd
000001f0: efa3 023c 64cf f43c 10d7 b2bc c323 e9bc
00000200: 07d7 3dbd d279 47bd e926 27bc 9ee0 7fbd
00000210: d922 633d 51d6 08bc db76 2fbd b689 433d
00000220: 020b b43c 9c6e 963b c25a aebc 1b42 403d
00000230: 59fa cbbc 8f5f 4fbd fc18 db3c a704 aa3c
00000240: 4485 27bd ae21 333d 2d7a 483d 5008 7e3d
00000250: 4c03 f23c e3ff 2fbc 8351 cabc 410f 233d
00000260: c22c a9bb adbb 82bd 5f78 823d 6824 06bd
00000270: 9162 4839 5a59 1ebd 5b91 5abd bfd0 153d
00000280: edc7 bcbc f62c e7bb 83de 283c ee4d 3ebd
00000290: e6f4 52bc 6131 f93c 8fa3 15bd fa50 f43c
000002a0: 81fa 1b3d d062 d6bc 5879 10bc 299b 6e3d
000002b0: 39f8 35bd d978 4e3c 2df7 593d aa94 45bd
000002c0: a087 373d 4420 21bc e7d3 bdbc 1c17 c8b9
000002d0: 3de5 4bbd 938b bfbc 91c0 4abd 8ef5 313d
000002e0: 428c 183d 7704 06bd 5025 96bc dfc1 26bd
000002f0: 484c 4a3d a13f 4a3b 4fe5 d13c e610 5abc
00000300: dd4e bf3b 0f97 333c 08c2 463c 0591 143c
00000310: 8938 9d3c f6a3 413d ed42 14bc 028c 99bc
00000320: 6929 7bbc 107d febc d96e 81bc ca29 98bc
00000330: 1523 04bc 6bc3 ecbb 305c 263d 46a3 67bd
00000340: 52fa 053d e15b 1c3d 2615 8c3d 6750 c3bc
00000350: ab03 533b c8db 60bd ee28 f1bc cd4e b03c
00000360: 4840 51bb d8a4 4b3b 5e81 fd3b 172c c63b
00000370: c3de 003d 4669 633d 3463 46bd 2e7e 42bd
00000380: 323d 233d deac 2abd 4a05 18bd 8f58 8c3a
00000390: 117d 5b3d 6670 1e3d a644 7dbd 1a06 403d
000003a0: 02c5 0d3d bd45 40bc cc8f c0bc 5417 d43b
000003b0: 7409 6fbd fa97 52bd 0772 793c a454 103c
000003c0: 722f dbbc 251f 48bc 4e54 0cbd 7a34 533d
000003d0: 7cbe 42bd 4d2d 85bd 77f3 853b a599 babc
000003e0: 4036 133d b555 81bc bd51 473c f310 d9bb
000003f0: 286f 183c f509 d1ba c77e 0e3b 017c dc3c
0.0018939564 0.00089535397 -0.044339463 -0.029113194 -0.058390956 0.044520568 0.02485161 0.016233899
0.059994094 -0.06387828 0.05181358 0.032174148 -0.038566243 0.03131449 0.04574952 -0.002816114
-0.0623262 -0.039453372 0.048748974 0.026712563 -0.051469695 -0.05812259 -0.04671514 -0.002812959
-0.017964857 -0.0021712852 -0.04345741 -0.016730284 -0.05389848 -0.050702278 0.049449913 -0.014272491
-0.036624003 -0.043644678 -0.0565952 0.017549075 0.05464207 0.054233212 -0.04514218 -0.02207134
0.009509061 0.015413093 -0.011469165 -0.01826534 0.02079422 0.036194433 -0.020958917 0.05098813
0.04578603 -0.015716104 -0.045169298 0.023348844 -0.036712945 0.02380322 0.004981011 -0.0028401492
0.014247687 0.015454839 0.055717476 -0.030041613 0.014735537 0.04344919 0.0052415165 0.04480313
0.031781 -0.029684786 0.002454083 -0.0669561 0.039398286 0.021653743 -0.0035952914 0.010990517
0.030242931 0.02641608 -0.014661248 -0.023954067 -0.0022632189 0.050940163 -0.0067273467 -0.062495843
0.019694366 0.00801178 -0.0061118724 0.02039514 0.044660848 0.012146475 -0.036622413 -0.04543708
0.024457483 0.007349002 -0.037405923 -0.019404506 -0.008085247 -0.020786643 -0.033086915 -0.04614358
-0.013873524 0.014835998 -0.025403105 -0.008587593 0.038742594 0.06621367 -0.041099276 -0.029102527
-0.0019972136 -0.02868694 0.046754297 0.04719449 0.024710659 0.0048333625 0.042359527 0.036050104
-0.013475709 -0.03601362 -0.00058253173 -0.031771652 -0.05716333 0.040265594 -0.017022798 0.017465025
-0.027892623 0.04632825 -0.027273603 -0.036507603 0.007973655 0.029884048 -0.021831065 -0.028459435
-0.046347644 -0.04870016 -0.010202148 -0.06247007 0.055453155 -0.008351878 -0.04283796 0.047738753
0.021977905 0.0045908224 -0.021283511 0.046938043 -0.024899649 -0.05062824 0.026745312 0.020754172
-0.040898576 0.04373329 0.04894464 0.062019646 0.029542588 -0.0107421605 -0.024697071 0.03980947
-0.0051628063 -0.063834526 0.06370615 -0.032749563 0.00019110205 -0.03865943 -0.053361278 0.03657603
-0.02304455 -0.0070549203 0.010306957 -0.04646104 -0.012875771 0.030419054 -0.036532935 0.029823769
0.038080696 -0.026170164 -0.008817993 0.05825344 -0.044426177 0.0126020545 0.05321424 -0.04823748
0.044807076 -0.009834353 -0.023172332 -0.0003816419 -0.049779166 -0.023381984 -0.049500052 0.04344707
0.037243135 -0.0327191 -0.018328339 -0.040712234 0.049389154 0.003086068 0.025622038 -0.013309693
0.0058382587 0.010961308 0.012131222 0.0090677785 0.019191997 0.047275506 -0.0090491595 -0.018743519
-0.015329697 -0.031065494 -0.015799927 -0.018574614 -0.008065005 -0.007225444 0.04061526 -0.056552194
0.032709427 0.03817356 0.06839971 -0.02384205 0.0032198231 -0.0548971 -0.029438462 0.02152195
-0.0031929184 0.0031073596 0.007736369 0.0060477364 0.031462442 0.05552032 -0.04843445 -0.047483616
0.039853282 -0.041668765 -0.03711442 0.0010707545 0.05358607 0.03868141 -0.061833046 0.04688082
0.03461171 -0.011735377 -0.023506068 0.0064725075 -0.058358625 -0.051414467 0.01522494 0.008809242
-0.026756022 -0.012214457 -0.034260087 0.051563717 -0.04754494 -0.06502781 0.004087861 -0.022778342
0.03594041 -0.015787939 0.012165484 -0.006624335 0.009303845 -0.0015948402 0.0021743046 0.026914598

module.1.module.0.0.weight f4 [256, 256]
00000000: 333a 71bc 0414 3b3d 601f d33c aaaa a03c
00000010: 5ee4 1dbc d0cc f23c 4195 88bd b93b 293d
00000020: 65b0 153d 4c34 cabb 7e6d 1bbd d53a a43c
00000030: 35bf e33c a282 e23c 8b61 63bc 3961 dcba
00000040: cc98 4fbd 7859 113d cffe 52bd 2f5f e8bc
00000050: 52df 36bd a57b 44bc ade3 923c 350b 2c3d
00000060: 73f1 a3bc 3b38 e438 e27d 4cbc 0273 7e3a
00000070: 02d7 b7bb ceb4 6f3d 0bbd 9fbb ff39 31bd
00000080: 843e 863c 5166 88bb 13fe 07bd 44ac 91bc
00000090: ff36 053d 0089 86bc a179 03bd 2b15 77bd
000000a0: 310a f1ba 7bcf 733d ed10 8e3c 8077 30b1
000000b0: 7fe9 2d3d bc1c 173b 925d 20bb 298f 07bc
000000c0: a678 acbb 190f d43c 1206 eebc bc6b 42bd
000000d0: 003c 0cbc 60d8 0abb 46e6 3f3d cf5e c2bc
000000e0: 45cd 23bd 720a 06bd 1cce 983c 8ab0 f3bb
000000f0: 6b31 50bd 6c29 e5bc 171e 813c b9f6 d23c
00000100: 21ad d73b af60 76bd 71e4 22bd f252 39bc
00000110: a244 aa3b 8e5c 29bd a5bf 95bc 36a0 1e3d
00000120: f9ca 533c c5f7 53bd e7de 303d fde4 41bd
00000130: 6eef 99bc 4a07 2031 3ea4 213b 0aaf 803c
00000140: ea67 5cbd ebe7 3a3d 222e 61bc cb9d bcbb
00000150: 3f3d 7cbc 1d21 86bd 6e31 2ebd d480 d1bc
00000160: 9735 b72f bb8d 213d fa54 61bd 086f 483d
00000170: 9426 9abc 307b 15bd 1e3a a3bc 6b6d 8cbc
00000180: a1ce 663d aa73 2dbc 26a6 b7bc e09e 9539
00000190: 139e 613d 0b42 6b3c cacf fdbc 8cb1 f13c
000001a0: d890 37bd 871d c9bb 13c6 d5bc f38f 6cbc
000001b0: 41be 9e3b 6592 d1bc ea54 95bc 617e 0dbc
000001c0: 1f64 603d 81a3 c2bb a77f dfbc 6062 12bd
000001d0: ed3a 49bd 5a6c 023d c75b 043d e552 443d
000001e0: 5861 75bd a1e4 2abd 817b 01bd 2205 f43b
000001f0: 0e82 943c aac8 953c 007a 24bd dcfe bb3c
00000200: 191e 8b3c e3db 0f3d e38a ffbc ecfa 3c3c
00000210: d3b9 5b3c 371a c33b bd3a 27bd ded3 4abd
00000220: 05f4 1d3d 7521 01bd 0366 25bb 7578 b6bc
00000230: 3426 563d b1c1 3bbd 1a03 29ba 662e 363d
00000240: c058 103d 40ae 073a 3f5d 82bc 832f af35
00000250: e11a 0f3d 56f2 493d e57e 16bb 1701 b33c
00000260: a67e dcbc 4d10 163c b81a 60bc b332 09bd
00000270: 1759 a6bc 3ac5 123b 3672 9e3c ab74 ffb9
00000280: f082 c3bc 0e29 3fbc 5304 80bc e38d c8bc
00000290: 99fc 9c39 52c4 90ba 20b1 9ab2 8d81 523d
000002a0: f556 823c 72e8 cbbc 9d91 48bd d810 e43b
000002b0: e875 453c a9b6 1e3d 99c6 3e3d add4 a33c
000002c0: 9ebf 5a3d 7132 313d e1d8 fe3b fd55 7b3c
000002d0: f816 62bc 2833 e43b 4131 8abb fa96 6ebc
000002e0: 9112 de3c 0bac 7e3d 6573 54bc 5753 6dbc
000002f0: 687e 1abc 87e2 c43b 2742 d3bc 2040 76bb
00000300: 19c0 193c 27ad 403d 750c 323d aa67 463d
00000310: b3c6 b83c d6d7 08bd 9b07 7abd ea6e 28ba
00000320: 263a db3c 6f56 01b1 516a f03b 156d 0ab6
00000330: b372 bc3b f249 27ba b70d 6c3d ccde 3cbd
00000340: 86f2 713d 476f e5bc 9d43 aa3b 471c c7bc
00000350: 3f0e c03a b4e3 a0bc ff40 6ebc c9d6 d33c
00000360: 13b7 93bb b5b8 093d 3c68 2e3c 1368 23bd
00000370: f4a4 b5bc a2ad d73c 9399 1a3d 3c5f 37bc
00000380: 5bc2 873d 4511 f63c 59f0 6abb 1ca0 6b3c
00000390: 1de1 f63b a59a 53bd 49ca 1abd 8feb 1baf
000003a0: 1410 203d d564 713d 048c eebc eba5 62bc
000003b0: 3713 1fbc 6b4e c93c 152c 23bb 7051 813d
000003c0: 85f9 70bd df78 ef3b 80ed 2cbd 9631 4e3a
000003d0: a53d 4a3d 4429 76bc ab97 6e3d 6a4d 4ebd
000003e0: f7e0 e72f 9de5 723d 65fc 26bd 63ad ecbc
000003f0: 3a04 f33c b9b0 c23c a447 d63c 388c 723d
-0.014723348 0.045673385 0.025771797 0.019612629 -0.0096369665 0.029638678 -0.06669093 0.04131672
0.036545176 -0.006170785 -0.037946217 0.020047585 0.027801136 0.027650181 -0.0138782365 -0.0016813643
-0.050682828 0.035485715 -0.051512536 -0.0283657 -0.04464657 -0.01199237 0.01793083 0.042002875
-0.020012593 0.00010882361 -0.012481185 0.00097064686 -0.0056103477 0.05852204 -0.0048748306 -0.0432682
0.016387232 -0.0041625877 -0.03320129 -0.017782338 0.03252315 -0.016422749 -0.032098416 -0.06032292
-0.0018389878 0.05952404 0.017342055 -2.5679299e-09 0.042459007 0.0023057899 -0.0024469835 -0.008273878
-0.005263406 0.025886105 -0.029055629 -0.047466025 -0.008559227 -0.0021186098 0.046850465 -0.023726849
-0.039990682 -0.032724805 0.018652968 -0.0074368166 -0.05082838 -0.027973853 0.015761418 0.025752412
0.006581918 -0.0601508 -0.03976864 -0.01131128 0.00519617 -0.041348033 -0.01827986 0.038727008
0.01292681 -0.051749963 0.043181326 -0.04733752 -0.018790927 2.3287208e-09 0.0024664546 0.015708465
-0.053810038 0.04563133 -0.013743909 -0.005756115 -0.015395462 -0.065492846 -0.04252761 -0.025574125
3.3325584e-10 0.039441805 -0.05501268 0.048934013 -0.018817224 -0.036494434 -0.019925173 -0.017142018
0.0563494 -0.0105866585 -0.022418093 0.00028537866 0.055082392 0.014359008 -0.03098287 0.029503606
-0.04481587 -0.006137553 -0.026095426 -0.014438617 0.0048444574 -0.025582502 -0.018228967 -0.008636088
0.054782983 -0.0059399013 -0.027282549 -0.03573835 -0.04912846 0.031841613 0.03231409 0.047930617
-0.059907287 -0.041721944 -0.031611923 0.007446901 0.018128421 0.01828416 -0.04015541 0.022948675
0.016982125 0.03512181 -0.031194156 0.011534434 0.013411003 0.005954053 -0.0408275 -0.04951846
0.038562793 -0.031526048 -0.0025237806 -0.022274235 0.052282527 -0.045839015 -0.00064473005 0.044477843
0.03524089 0.00051758066 -0.015913604 1.3052344e-06 0.034937743 0.049303375 -0.0022963819 0.021851106
-0.02691586 0.00915916 -0.013678245 -0.033495616 -0.020306153 0.0022395388 0.01934157 -0.00048724315
-0.023866147 -0.011667503 -0.015627062 -0.02448172 0.0002994284 -0.0011044836 -1.8008507e-08 0.05139308
0.015910605 -0.024891112 -0.048966993 0.0069600157 0.012052037 0.038748417 0.046576116 0.019998873
0.053405397 0.043260995 0.007777319 0.015340325 -0.0137994215 0.006964106 -0.0042172973 -0.014562363
0.027108463 0.06217579 -0.012966965 -0.014485202 -0.009429552 0.0060084495 -0.02578838 -0.0037574843
0.009384179 0.04704013 0.04346891 0.048438706 0.022555685 -0.033408962 -0.06104241 -0.0006425219
0.026761126 -1.8821102e-09 0.0073368927 -2.0627097e-06 0.005750978 -0.0006381563 0.057630267 -0.046110913
0.05906918 -0.028007163 0.0051960484 -0.024305476 0.0014652683 -0.019639827 -0.014541863 0.025859253
-0.004507908 0.033623416 0.010644969 -0.039894175 -0.022173382 0.026327912 0.037744116 -0.011192139
0.06628867 0.030037532 -0.0035848825 0.014381435 0.00753416 -0.051661152 -0.03779057 -1.4180855e-10
0.039077833 0.05893405 -0.029119499 -0.013833503 -0.009709171 0.024573525 -0.00248981 0.06314361
-0.05883171 0.00730811 -0.042218685 0.0007865665 0.049375195 -0.015024487 0.05825011 -0.050366797
4.2178502e-10 0.059301008 -0.040768046 -0.028891271 0.029665101 0.023765909 0.026157208 0.059215754

module.1.module.0.2.bias f4 [2]
00000000: 3065 10bd 6b9c cebc
-0.03525275 -0.02522107

module.1.module.0.2.weight f4 [2, 256]
00000000: 6b91 4f3d 7437 913c edb3 a13c 7305 12bd
00000010: 58e6 473d 73dc 4ebd 6879 84bb fb71 a7ba
00000020: 2934 ee3c 17d5 2abd b9aa 453d f492 8e3d
00000030: 269c 083d 11f3 ce3c a660 ee3c 2eab 35bd
00000040: 8679 163d 6d15 aabc 82a8 09bc 5b69 33bd
00000050: 04b7 633c 6411 88bc e4dd 9d3c baa5 213c
00000060: 4dd7 8cbc aeba 803d c646 413d 7c0d 74bc
00000070: f384 023d 9412 55bc bb19 a3bb 7ff1 2f3d
00000080: 92e1 a33c be57 e93c 7428 7ebc 1df9 20bd
00000090: 2c77 6abd a80f fabc 3e3b 8f3c a535 01bd
000000a0: fccf 8d3c bb96 10bd 10a5 663c 3027 b53c
000000b0: 7e04 3bbd 4dd2 1ebd fb04 e13c ed7c 4cbd
000000c0: 8aa2 e8bc 9c4b 7dbd 908b b83c a1d2 2c3c
000000d0: ddac 263d 33d5 823d ff7e 6c3b 9d6f 0e3d
000000e0: 7d74 6dbd ffbe dabc 0458 17bd 70dd f1bb
000000f0: 948e 52bd 10bf a53c 97de 863d 9bb9 6c3c
00000100: 2927 193d a5e1 853c e60e 733d ae45 bcbc
00000110: 7ca9 35bd 4da5 f03c 5571 0bbc d25e 0e3d
00000120: 1ce1 e8bc 503c 1b3d b73d 1ebd f19c 283d
00000130: 3bd6 e83c 1d91 89bd 9217 01bd 6fad 103d
00000140: 5532 013c d943 aa3c 8cd6 f7bc 3b4c 2c3d
00000150: ac40 463d a0ab b13c ad82 bdbc 9900 f53c
00000160: db23 763c 0f59 fb3c 5aa6 123d aaf8 8d3c
00000170: f525 903d a1de 75bc 8902 5dbc a61b 5cbc
00000180: eced 1f3d 07df 233d 22fb 823d 405c c9bc
00000190: 67f7 73bd eadc eebb f67a e63c 5238 27bd
000001a0: 52c9 eb3c b948 10bd 6e10 16bd 0653 2ebd
000001b0: 3d53 59bd e716 803d 5007 8cbd d977 913c
000001c0: 6f8d 91bb 9f4d 51bd 1464 61b9 5e76 93bd
000001d0: 5a57 fd3c f55a 8a3a 395c 2fbd bb82 40bc
000001e0: a661 be3c 5522 8cbc bf31 ffbc 33f6 f23c
000001f0: 67c8 8bbd 9d42 bfbc 5429 dcbb c6ca 64bd
00000200: 561e 2f3d 3b7a b1bb 2162 62bd d2f4 08bd
00000210: ef42 10bd 7360 6dbd 10dc d23c bbb9 9fba
00000220: 2e91 5d3d 79ae 1bbd bc22 43bd 59cf 9f3c
00000230: e1cb 173c f31e 93bc e908 13bd e7b8 23bd
00000240: ed90 dabc 895d 2f3c 8500 143d 056e 30bd
00000250: 9c25 5b3d c1f0 c13c 3c20 c4bc e1b8 83bd
00000260: b6c9 02bc d132 b7bc 132f 0f3d e9b0 4e3d
00000270: 847b 5abd 8ed7 9dbc d5f0 ad3c d991 c23c
00000280: 3c12 523d 1c8c 34bc 3763 3d3d 7a24 99bc
00000290: 7286 283c 23ad 9d3c 5352 10bd 6695 edbc
000002a0: 175c b83b 6c91 163d 9ec1 533c c0d3 88bd
000002b0: 9b5b fe3a 8525 813d 9a97 833c 9b01 87bd
000002c0: 028d 80bd 892f febc 1433 a93c fbfe 7e3a
000002d0: 1c52 933d d044 7d3d 6ac1 3d3d b391 dbbc
000002e0: 5a44 f8bc 5986 3f3d b9c3 4e3d 2982 cbbc
000002f0: b510 243d d58b 503d 5a19 1bbd ea93 71bd
00000300: 783e 8cbc 90af 10bd ee3b 0c3d d726 65bd
00000310: aff3 0fbd f306 dd3c 6860 16bd f69f f1bc
00000320: aff8 e93b ec24 223d 3072 9e3c b9a6 413b
00000330: 95e7 0d3d f697 a7ba 6aa9 083d 50ac bd3c
00000340: f226 40bd 61da 5eba 41d9 d3bb 5ffa 0dbd
00000350: 98c8 17bd 12b0 fcbc d9e9 09bd a6fa b6bc
00000360: a7a8 af3c 0748 08bd 02c5 7fbc 6d6d 59bc
00000370: 6cd5 7a3d aa60 d03c 0506 873d 6b34 773d
00000380: 9bff 70bc 0637 583d 1622 acbc 63ce 7cbb
00000390: 3c6e 473c 2c91 443d 5fb1 5a3d 52db 113c
000003a0: 470a 5ebd e223 8b3d 2f9b 243b 4684 083d
000003b0: d0ed 43bc 2d88 89bc 1596 323d 053f 773c
000003c0: 0d60 693a f57b 06bb 051a 0a3d b6c4 7bbd
000003d0: 093d 873d 3af4 26bc 5bf7 143d 436d 04bd
000003e0: be55 843d 15fd e739 b000 59bd e5a7 033d
000003f0: a4aa 58bb 867a 04bd 2554 263d 0f78 37bd
0.05067579 0.017726637 0.019739116 -0.035649728 0.048803657 -0.050503206 -0.004042793 -0.0012775058
0.029077606 -0.041707125 0.048258517 0.06961623 0.03335204 0.025262387 0.02909882 -0.044352703
0.036736988 -0.02076217 -0.008401992 -0.043801647 0.013898615 -0.016609855 0.019270845 0.009866172
-0.017192507 0.06285606 0.047186635 -0.014895793 0.03186507 -0.013004918 -0.0049774325 0.042954918
0.020005021 0.028484222 -0.015512574 -0.039300073 -0.057242557 -0.030525044 0.017484304 -0.0315453
0.017311089 -0.035299998 0.01407744 0.022113413 -0.04565858 -0.038774777 0.027468195 -0.049923826
-0.028397817 -0.061839685 0.022527486 0.010548265 0.0406922 0.06388321 0.0036086438 0.03477441
-0.05797242 -0.026702402 -0.036949173 -0.0073811337 -0.051405504 0.020232707 0.065854244 0.014448549
0.03739086 0.016342947 0.05934038 -0.022982445 -0.044351086 0.029375697 -0.008510907 0.034758396
-0.028427653 0.037899315 -0.038633075 0.041165296 0.028422466 -0.06717131 -0.03151662 0.03532165
0.007885535 0.020784305 -0.030253671 0.042064887 0.04840152 0.021688282 -0.0231336 0.029907512
0.015023197 0.030682115 0.035803176 0.017330486 0.0703849 -0.015006692 -0.013489374 -0.013434326
0.03904526 0.040007617 0.06395556 -0.024580121 -0.059562113 -0.0072895186 0.028134804 -0.040825196
0.02878252 -0.035225604 -0.036636762 -0.042559646 -0.053057898 0.06254368 -0.06837332 0.017757343
-0.004441909 -0.051099416 -0.00021494954 -0.07200311 0.030925442 0.0010555672 -0.04281256 -0.011749919
0.023239922 -0.017106215 -0.03115165 0.029658413 -0.06825333 -0.023347193 -0.006718794 -0.055857442
0.04275354 -0.0054161823 -0.055269364 -0.033436604 -0.035220083 -0.05795331 0.0257397 -0.0012186089
0.054093532 -0.038008187 -0.047640547 0.01950805 0.009264917 -0.017959094 -0.03589717 -0.03997126
-0.026680434 0.010703453 0.036133308 -0.043073673 0.053502664 0.02367437 -0.023941152 -0.06431747
-0.007982662 -0.022363098 0.034957003 0.050461683 -0.05334045 -0.019267824 0.021233002 0.023751186
0.05128692 -0.011019733 0.046237197 -0.018694151 0.0102859605 0.019247597 -0.03523476 -0.029001903
0.0056262123 0.03675978 0.01292458 -0.06681013 0.0019405963 0.063059844 0.0160635 -0.06592103
-0.06276895 -0.031028526 0.020654239 0.0009727326 0.071933955 0.061833203 0.046327032 -0.026802873
-0.03030603 0.046758983 0.050479624 -0.024842339 0.040054996 0.050914604 -0.037865974 -0.058978952
-0.017119631 -0.03532368 0.03423684 -0.055945244 -0.035144504 0.026980853 -0.036713034 -0.02949522
0.007140241 0.039585993 0.019341558 0.0029548837 0.034644682 -0.0012786377 0.03336469 0.023153454
-0.04691214 -0.0008501169 -0.0064651077 -0.0346626 -0.037056535 -0.030845676 -0.03367028 -0.022336315
0.021442724 -0.033271816 -0.015610935 -0.013270718 0.06123869 0.025436718 0.06592945 0.060352724
-0.014709379 0.05278685 -0.021012347 -0.0038575165 0.012172278 0.04799001 0.05339181 0.008902388
-0.05420902 0.067939535 0.002511691 0.03332927 -0.011958554 -0.016788566 0.04360016 0.015090709
0.00089025573 -0.0020520661 0.03371622 -0.061466895 0.066034384 -0.010190064 0.03636871 -0.032330763
0.064616665 0.00044248314 -0.05297917 0.03214254 -0.0033060694 -0.03234341 0.04060759 -0.04479223
