data/weights/weights.pt (torch, 222215 bytes, 10 tensors)

module.0.module.0.weight f4 [64, 11]
000000 9a d4 b7 3d 7a 23 eb bd be fe 73 bc db d5 2a 3e
       0.089760974 -0.11481376 -0.014892278 0.16683142
000010 4f 01 80 3e 5d de 86 3e 72 e8 16 be c2 22 8c 3e
       0.25000998 0.26341525 -0.14737108 0.27370268
000020 6c ae 12 bd 7a 1f a2 bc 2d 58 6d 3e 0e 7a 57 3d
       -0.035810873 -0.0197904 0.23178168 0.052606635
000030 29 df 59 be ad 5d 38 be 2f da 1a 3c 30 e0 1c bc
       -0.21276535 -0.18004484 0.009451433 -0.009574935
000040 39 13 99 3c ff d1 c2 bd c5 bd 11 bd c0 1f 2e 3d
       0.018685924 -0.0951271 -0.03558137 0.042510748
000050 80 c2 a1 3d 27 df 1d 3e 9a c8 66 3e 24 22 09 3e
       0.07898426 0.15417157 0.22537461 0.1339193
000060 8d 16 d3 bc 98 05 8a be c1 bc 6f 3e bc a6 2c 3e
       -0.025767589 -0.26957393 0.23411848 0.16860479
000070 f8 af 8f 3e ae e8 83 3d 99 88 22 3d 52 cc 82 3d
       0.2806394 0.064408645 0.03968105 0.06386627
000080 ef c1 47 3e 0b 48 31 3e 8a a1 1a 3e 9e 35 8c bd
       0.19507574 0.17312638 0.15100685 -0.06846164
000090 1b 6d 19 be 9f 45 4f 3d c4 e0 43 3e 1e 84 93 bb
       -0.14983027 0.050603505 0.1912871 -0.0045018336
0000a0 3d 16 81 3e ff 1c 26 be 77 49 02 3e 96 87 eb 3c
       0.2521228 -0.16221999 0.12723337 0.028751176
0000b0 a4 71 55 be 6e 21 1e 3e 6b e6 38 be 87 33 50 3e
       -0.20844132 0.1544244 -0.18056647 0.20332156
0000c0 95 6d 26 3e 4f 50 8a be b7 f6 25 3e a6 a8 1d 3d
       0.1625274 -0.27014396 0.16207395 0.038490914
0000d0 17 61 d8 3d 67 eb d9 3d c5 17 42 bc 2a 7a e8 bd
       0.105653934 0.106406026 -0.011846487 -0.11351426
0000e0 d7 4a 89 bd d2 06 cb bd 01 b1 8f be 08 aa cf 3d
       -0.06703728 -0.0991341 -0.2806473 0.10139853
0000f0 57 9e 02 be dd a5 86 3d 4f 25 81 bd 97 c0 33 3e
       -0.12755714 0.06574605 -0.06305944 0.17553936
000100 a7 56 fe 39 6e 23 75 be 1b 4a 9b 38 f0 c1 0b bd
       0.00048511216 -0.23939297 7.404779e-05 -0.0341205
000110 48 99 2a be b6 13 89 3e ef 3a 82 3d ba 7a bd bd
       -0.16660035 0.2677285 0.06358897 -0.09251924
000120 1d 06 97 be e0 92 89 3e 41 3e 42 be 6e a4 10 3b
       -0.29496852 0.2686987 -0.1896906 0.0022070664
000130 b3 f6 14 3e 06 f9 81 be cf 1d d9 3d 46 fa 8f 3e
       0.14547233 -0.25385302 0.10601389 0.2812063
000140 2a be 0b be 78 14 ef bd 4d 95 90 be 01 a7 93 be
       -0.1364676 -0.11673826 -0.28238907 -0.2883835
000150 4a 8c be bd cd 07 42 3e 1e 45 f3 af 1a 1a 3f be
       -0.09304102 0.18948288 -4.4250553e-10 -0.186623
000160 d3 f8 3b 3e 61 8b 13 3d 4d fe 8d 3e da 78 99 be
       0.18356638 0.036021594 0.2773308 -0.29975015
000170 5e 29 90 be df dd c6 3c 05 f4 6e be bc 9d 84 be
       -0.2815656 0.024275718 -0.23335274 -0.25901592
000180 f2 15 30 3e bd fa 54 be de bc 4d be e7 88 b6 3d
       0.17195871 -0.20798774 -0.20091578 0.08912831
000190 ba c4 c1 3d 81 b9 8d 3e bd 72 d5 bd 88 f9 9e 3c
       0.09461351 0.2768059 -0.10422275 0.019406095
0001a0 f7 67 33 be e2 6f 76 3d 4c 84 5e 3d 99 88 c6 bd
       -0.17520128 0.060165294 0.054325387 -0.09694023
0001b0 3a 25 3e 3e b7 69 40 b8 b9 2e 8a bd b4 b2 ac bd
       0.18568888 -4.587482e-05 -0.06747193 -0.084325224
0001c0 f4 f3 88 bd f1 2c 4e bd 1d 4a 8d 3d 05 ce 54 3e
       -0.06687155 -0.05033583 0.068989016 0.20781715
0001d0 c4 16 a0 3c 53 2d 84 3e ee be 60 bd f9 12 b0 3d
       0.019542105 0.2581583 -0.054869585 0.08597369
0001e0 b2 06 78 be 31 24 0c 3e ea 7a ab 3d fe fc ea 3d
       -0.24221304 0.13685681 0.08373053 0.11474036
0001f0 a1 19 6e be 83 99 81 3e 6f 3c 12 be 5c da a3 3b
       -0.23251964 0.25312433 -0.14280866 0.0050003957
000200 da 94 38 3e 65 9d 76 be a7 c0 31 3e fd 29 fa bd
       0.18025532 -0.24083479 0.17358647 -0.1221504
000210 05 cd 8b be d6 7f 1c be 55 a8 75 be 1b 83 70 3e
       -0.27304855 -0.1528314 -0.23989995 0.23487513
000220 bd ff 22 3e aa 4b 42 be 11 f2 de 3d 59 f6 10 3e
       0.15917869 -0.18974176 0.10886014 0.14156474
000230 69 53 2b b5 1d 43 fb 3d f2 ca 5e be 62 33 53 3e
       -6.382384e-07 0.1226866 -0.21757105 0.2062507
000240 7a 93 5e 3e d3 b3 a1 3a a6 ab bd bc 0f 2d 4a bd
       0.21735945 0.0012336917 -0.023153137 -0.049359377
000250 e0 51 be bc aa ff 2c be 48 e8 b0 3d 83 9f b6 3c
       -0.0232324 -0.16894403 0.08638054 0.022292858
000260 e1 9c 59 b5 01 5f 84 3e c9 bb 24 3b 7c 2c 7b be
       -8.106709e-07 0.25853732 0.0025136343 -0.24528688
000270 23 49 0c 3d b2 13 73 be e6 5b 6d be c6 ae eb bd
       0.034249436 -0.23737982 -0.23179588 -0.11507945
000280 f2 94 80 be b2 10 6b be f7 15 f4 bc e6 db 97 3a
       -0.25113636 -0.22955588 -0.02979563 0.0011585921
000290 6a 36 16 b7 46 77 07 3d e5 06 a5 3c 5d 2f 6d 3e
       -8.953366e-06 0.033072732 0.02014489 0.23162599
0002a0 99 c8 35 3d a0 2a 06 3d 3d d1 0a 3c 5f ea 81 3c
       0.044380758 0.032755494 0.008472738 0.015858827
0002b0 9c 00 65 bd 26 15 1a bc 22 c4 62 3e 94 bd 00 b8
       -0.055908784 -0.009404456 0.22145131 -3.0694137e-05
0002c0 fe 18 5d 3e 05 fa 06 3e 5d ab 91 3e f3 42 88 3e
       0.21591565 0.13181312 0.28451052 0.26613578
0002d0 a1 f7 57 be 9f 10 63 be f3 f2 82 be 20 af 8e be
       -0.21090557 -0.22174309 -0.2557598 -0.27867985
0002e0 fc 84 0f bd 49 bc 13 be 01 bb b4 3c 80 e4 35 be
       -0.035038933 -0.14427294 0.022061827 -0.17762947
0002f0 d5 12 3f 3e cf 82 98 3e 8e e9 05 3e 05 f3 b3 3d
       0.18659528 0.297873 0.13077375 0.08786587
000300 0c c5 93 be 70 6a 57 be 34 cd 8c bd 8f bb d9 3d
       -0.28861272 -0.21036696 -0.06875077 0.10631477
000310 a1 04 63 3c e7 e0 4b 3d 32 ba 76 be a9 43 54 3e
       0.013856084 0.04977503 -0.24094465 0.20728935
000320 37 c0 4d be 01 27 09 3e 85 43 45 3e 1a 32 81 bc
       -0.20092855 0.13393785 0.19264038 -0.01577096
000330 c4 f5 35 3e 73 5c 0b 3e a5 11 9a b8 91 c0 7f be
       0.17769533 0.13609485 -7.346579e-05 -0.24975802
000340 4e 35 19 be 1e db 73 bc ce 94 3e 3e 36 b6 b8 3d
       -0.1496174 -0.014883785 0.18611452 0.09019129
000350 e1 27 ce bc 2a f9 1a be f0 ad 31 3e ca 76 20 3d
       -0.0251655 -0.15134111 0.17351508 0.039175786
000360 a8 fc 45 3e 26 d2 6c 3d 02 67 9e bc 19 50 53 3e
       0.19334662 0.0578176 -0.019336227 0.20636024
000370 49 ca aa bd dc b4 99 be 01 19 c3 3d d2 d9 41 be
       -0.08339364 -0.30020797 0.095262535 -0.18930748
000380 8d 60 22 be 25 86 90 be 3b 0a 85 be 9d 41 3d bd
       -0.15857144 -0.28227344 -0.25984368 -0.04620515
000390 ac d5 10 be d9 3d 81 3d c3 ee 20 be e8 5d 81 3e
       -0.1414401 0.06310625 -0.1571608 0.25266957
0003a0 90 c7 89 3e e5 8a 33 bd d5 54 89 3b ab fa b1 3d
       0.26910067 -0.043833632 0.004191021 0.08690389
0003b0 c5 08 c8 bc 46 35 90 be 7a d3 5b be cf 74 a1 bd
       -0.024418244 -0.28165644 -0.2146739 -0.078836076
0003c0 57 a7 d5 3d 4a 4f 89 3a 87 8f 83 be 06 c9 84 be
       0.10432308 0.00104759 -0.2569544 -0.2593462
0003d0 41 33 7b 3e 28 49 3d 3e 77 04 9e be 52 ae 52 3e
       0.2453127 0.18484938 -0.3086278 0.2057431
0003e0 d7 f8 bf bd 40 36 ca 3c 30 14 87 bc ab 1c 7a 3d
       -0.09373634 0.024684072 -0.016489118 0.061062496
0003f0 dc 14 14 3e fb 5e 00 3e 9f 07 1a be 04 c8 d4 bd
       0.14461082 0.12536232 -0.1504197 -0.103897125

module.0.module.0.bias f4 [64]
000000 cc 05 e1 bd 61 a7 36 be 2b 11 80 bd 69 e9 06 3e
       -0.10987434 -0.17837287 -0.062532745 0.13174976
000010 ac b3 8c bc b8 18 4a 3e 5f 9a 6e 3e 39 0d 1b 3e
       -0.017175518 0.19735992 0.23301075 0.15141763
000020 3b fa 5a bd 23 ee 92 be db 32 cf bd 5e e9 70 3e
       -0.053461295 -0.2869731 -0.10117122 0.23526523
000030 0d 7c 88 3e 16 44 81 3e 8c 5e 58 3e ac f9 13 be
       0.26657143 0.25247258 0.21129817 -0.14450711
000040 01 b6 79 bd 04 fd 31 3e 63 91 25 3e 6a 43 24 bc
       -0.060964588 0.17381674 0.16168742 -0.010025838
000050 1f cb 86 bd 82 d0 48 bd c5 07 22 3e 13 9f 1e be
       -0.06581711 -0.049026974 0.15823276 -0.1549037
000060 fc d4 88 be 05 50 8a 3e d4 f3 4f be 1d 3d 06 be
       -0.26724994 0.27014175 -0.20307857 -0.1310925
000070 ed 13 0d bd 3a 0b 13 bd c1 df 93 3d 05 2a f2 3c
       -0.03444283 -0.03589938 0.07220412 0.029561052
000080 25 87 6c 3e c5 e6 8a be 75 87 15 be 0c 4e d6 bd
       0.23098429 -0.27129188 -0.14602454 -0.10464105
000090 84 a4 8e b9 09 65 a2 bd d2 03 84 be df 69 75 be
       -0.00027206924 -0.07929427 -0.25784165 -0.23966168
0000a0 27 f1 36 3e b5 03 3c 3e b0 2f 89 be 4f f1 1e bd
       0.1786543 0.18360789 -0.26794195 -0.03880435
0000b0 f0 3e 89 3b 24 72 9e bc 7b 22 84 3d 6d 14 56 3e
       0.004188411 -0.019341536 0.06451889 0.2090623
0000c0 d3 5b 7b bd 8c 0a a0 3c 99 8a 0c be be 1d 81 be
       -0.061366867 0.01953628 -0.13724746 -0.25218004
0000d0 88 09 19 be 1c 81 cb 3c ae 46 6c 3e 38 cc 88 be
       -0.14945042 0.024841838 0.23073837 -0.26718307
0000e0 ce 47 8c 3e 58 b4 a1 bd 1d 35 11 3e 84 89 93 3e
       0.27398533 -0.07895726 0.14180417 0.28815854
0000f0 75 eb 3b 3e bb d5 77 3e 03 e3 1e be 85 9b 37 be
       0.18351538 0.24202625 -0.15516286 -0.1793042

module.0.module.2.weight f4 [64, 64]
000000 c9 49 a9 bd 43 34 9a 3d 2e a2 be 3d e5 bc 9a 3d
       -0.082660265 0.075294994 0.09308277 0.0755556
000010 3e 3e b1 bd a3 2f 41 3d 83 b4 99 bd 7a 6c 8c bd
       -0.0865445 0.04716457 -0.07505133 -0.06856628
000020 9d f2 4e bd 1e 85 d8 3d 80 c3 a7 bd 65 28 b8 3d
       -0.050524343 0.10572265 -0.081915855 0.0899208
000030 06 cb 86 bd ad f2 03 bd de 33 bf 3d 88 5d 20 bd
       -0.065816924 -0.032213856 0.09336065 -0.0391517
000040 fd cd 85 3c f3 a2 34 3d 6e 86 50 bd 5b 30 f0 bc
       0.016333574 0.044100713 -0.050909452 -0.029319933
000050 e1 bd 83 bd 6f 76 60 bd e3 63 80 3c 03 4d c8 3d
       -0.06432701 -0.054800447 0.01567263 0.09780314
000060 a8 88 9b 3c ca b9 43 bd 78 b5 91 3d f4 a8 0a 3e
       0.018986061 -0.047784604 0.071146905 0.13541013
000070 2f 85 f9 ba 73 fd c3 3d 60 1e 86 bd e6 72 7f 3d
       -0.0019036884 0.09569826 -0.06548762 0.062365435
000080 35 90 bb 39 66 24 a7 bb de e8 87 bd 62 bf cd 3d
       0.00035774862 -0.0051007746 -0.06636213 0.10046269
000090 51 cb d6 bc 76 db a4 bc b2 34 2b 3d d4 6d 81 3d
       -0.026219996 -0.020124178 0.0417983 0.06319776
0000a0 9d c9 c1 bd 4e af 33 3d 91 74 8a 3d fa fa 52 3d
       -0.09462283 0.043868355 0.067605145 0.05150888
0000b0 30 4b d6 3d e2 f1 b3 bc 45 3d 48 3c d8 ab bc bd
       0.1046356 -0.021965925 0.012221639 -0.09212464
0000c0 bd f0 de 3b 26 aa b0 3d 2a 0e a3 3d 17 f4 ba bd
       0.0068036006 0.08626203 0.07961686 -0.09128588
0000d0 b7 d6 e3 bc c0 4c a1 3d e8 bc d6 3d cb 21 d8 bb
       -0.027812345 0.07875967 0.1048525 -0.0065958253
0000e0 ce 5a 82 3d 0b 9f 4b bd 7f 81 9d 3d ec 2e dc bd
       0.06364976 -0.049712222 0.07690715 -0.10751137
0000f0 51 35 3f 3d b3 c0 fe bc 68 02 8a 3c b8 e6 c1 3d
       0.046681706 -0.031097746 0.01684685 0.09467834
000100 d0 3f 0d 3d 26 2a 45 bb 86 e7 b1 bd 9b fe 96 bd
       0.034484684 -0.0030084937 -0.08686738 -0.07372781
000110 09 2d d7 3d 9a c0 b0 bd d3 e1 de bd eb 32 b7 bd
       0.10506637 -0.08630486 -0.10882916 -0.08945259
000120 d7 d7 02 3b 09 a1 a6 bd 23 9a 19 bc cb ca cd bd
       0.0019965076 -0.08136184 -0.009375128 -0.10048445
000130 26 2d 09 3d 66 71 8e 3d 89 7a 39 bd 5f 5f 9c 3d
       0.033490323 0.06955223 -0.045282874 0.07635378
000140 69 58 13 3d 1f 86 c2 3d 8a 92 a3 bc d7 26 c0 bd
       0.035972986 0.09498238 -0.019967336 -0.09382408
000150 78 b9 8f 3c bf 87 fa 3c e8 57 dc bd cb 01 eb bd
       0.017544493 0.030582307 -0.10758954 -0.11474951
000160 46 6a a8 3d e5 d8 67 3d 3a 61 83 3d 6d 9f e5 3d
       0.08223395 0.05660333 0.06415029 0.11212049
000170 15 70 1e bc 4d ce ac 3c e1 60 16 3c b0 15 6a 3d
       -0.009670277 0.021094466 0.009178371 0.05714959
000180 80 7a a6 bd 63 9b d9 3d 4e 5e c2 3d a2 e8 bc 3d
       -0.08128834 0.10625341 0.094906434 0.09224059
000190 41 01 04 bd 6e 28 59 3d d8 d7 fe 3c ed 2f cd 3d
       -0.03222776 0.053017072 0.031108782 0.10018907
0001a0 ef d4 b8 3d eb 93 35 3d 0f bb 2e bd 9d 4f 2a bd
       0.09024989 0.04433052 -0.04265886 -0.04157983
0001b0 23 c4 9e 3d fe 0a 37 bc 55 56 e9 3d f3 40 69 bc
       0.07752254 -0.011172054 0.1139342 -0.0142366765
0001c0 52 ac 84 bd 2b f9 98 3d d7 11 de 3d 72 f6 e9 bc
       -0.0647818 0.074694 0.108432464 -0.028559897
0001d0 0c 0b bb 3d 28 15 b9 bd 08 43 45 bd 91 c0 7a bd
       0.091329664 -0.09037238 -0.04815963 -0.061218802
0001e0 64 7f ba bc 6f 0f ca 3d 9b 26 e3 bd 4c 49 0a 3e
       -0.022765823 0.09866225 -0.11091348 0.13504523
0001f0 f6 d4 4f 3c 86 20 9a bd bb 08 4a bd 05 ea 37 3d
       0.012685051 -0.075257346 -0.049324732 0.044900913
000200 ca ff b2 3d f2 63 01 3d 22 7f a1 bd b9 fd 6e bd
       0.08740194 0.031589456 -0.07885577 -0.058347438
000210 bf 1d c7 3d 73 7d bc 3d 69 90 d5 3d ec 5e e8 3d
       0.097224705 0.09203615 0.10427935 0.1134623
000220 59 02 90 ba 06 ba b1 3d 01 07 53 3d 25 89 c0 bc
       -0.0010987028 0.08678059 0.05152035 -0.023502896
000230 30 cc 62 bd d6 bf c7 bd 1b 42 56 bd 24 06 95 3c
       -0.05537051 -0.09753387 -0.052309137 0.018191405
000240 6d 79 37 bd 57 c4 2b bc ac d5 4e 3d e0 05 41 3d
       -0.044793535 -0.010483823 0.050496742 0.047124743
000250 44 ab 9a 3d d0 c5 e9 bd 80 3b 65 3c 4a 4d b0 3d
       0.075521976 -0.11414683 0.013991237 0.08608492
000260 ab 41 98 bd 32 a9 32 3b b9 70 e7 bd 62 41 e3 3d
       -0.074344 0.0027261493 -0.11300797 0.11096455
000270 af 78 eb bd 5f e2 01 3d c4 d4 ae bd 80 34 40 bc
       -0.11497628 0.031710025 -0.085366756 -0.011731267
000280 be 16 b8 3d 2b b3 ac bd 4a 49 d1 bd 3f eb 50 bc
       0.08988713 -0.08432611 -0.10219057 -0.0127514
000290 d3 7e 82 bd 32 4b 9d 3d e5 14 e8 bd 0c 09 8f bd
       -0.06371846 0.07680358 -0.1133211 -0.069841474
0002a0 ab cc e5 3d fe 66 1a 3c aa e6 d0 3d 6b f1 ba bd
       0.11220678 0.009423969 0.10200246 -0.09128078
0002b0 64 33 35 bd 2a e0 87 bd 5a 81 6a 3d e4 3e ff bd
       -0.044238463 -0.06634553 0.057252266 -0.12463167
0002c0 20 4a 74 bd b2 10 30 3d 50 75 de 3d 98 ca 97 3d
       -0.059641004 0.042984672 0.10862219 0.074116886
0002d0 1a 1a 0f bd 65 39 75 3d de 2c 53 3d 61 0d e0 bb
       -0.034937 0.05986919 0.05155646 -0.0068375324
0002e0 5e db 62 3d 2b 12 d5 bd 47 0e 5a bc aa ae e5 bc
       0.055384986 -0.10403856 -0.013309068 -0.028037388
0002f0 d7 00 d0 bd 2c d7 78 3d 0f b4 fc bc df 72 84 bd
       -0.1015641 0.06075208 -0.030847577 -0.064672224
000300 cd 5f 18 3d 50 e9 ad bd 58 f4 66 bc c0 3e 20 3d
       0.037200738 -0.084917665 -0.014096342 0.039122343
000310 36 19 ca 3d e6 45 ab bd db e2 6b bc 16 2b d4 3c
       0.0986809 -0.083629414 -0.014397348 0.025899451
000320 16 14 ae 3d 02 02 8d bd f6 c3 e1 3c 19 11 9a bd
       0.08499925 -0.068851486 0.027559262 -0.07522792
000330 a8 ea 86 bd 75 fa 07 bd 65 79 04 be 8f aa 5a bc
       -0.06587726 -0.03319784 -0.12936933 -0.013346328
000340 73 b8 75 bc 16 45 8c bd 10 1b b0 3b 46 14 2f 3c
       -0.014997589 -0.068491146 0.00537432 0.010685986
000350 ff 78 bd bd f1 18 b8 bd 9d 31 bc 3d 9a 13 85 bd
       -0.09251594 -0.08989132 0.091891505 -0.06497879
000360 c5 c5 9e b8 9a a9 b9 3c 01 24 58 3d 0f 03 83 bb
       -7.5708645e-05 0.02266388 0.05276871 -0.0039981673
000370 f0 db 4b bd a7 16 21 3c 24 5f 0f bd 62 54 9b bd
       -0.049770296 0.009832061 -0.035002843 -0.07584454
000380 a0 67 29 bd 60 7e 12 3c af 8f c7 bd 4e 25 c0 bc
       -0.04135859 0.008941263 -0.09744202 -0.023455288
000390 6a 3c b9 3d df 64 0d 3d c2 02 e2 3d 86 73 98 3d
       0.09044726 0.034520026 0.11035682 0.07443909
0003a0 db 77 d3 3d 3f b0 f9 3c a4 f5 32 3b 4f f0 ca 3d
       0.10325595 0.030479548 0.0027307058 0.099091165
0003b0 5c 6f 9b bc 2c a5 39 ba 85 29 d0 bd 5e aa f1 bd
       -0.018973999 -0.00070818025 -0.10164169 -0.11800073
0003c0 b4 ec a6 bd b4 86 f9 bc 97 55 41 bc 0e 1e b9 3d
       -0.08150616 -0.03045974 -0.011800191 0.090389356
0003d0 c6 3b 93 3b 89 5a c9 bd 29 a8 96 3d 42 5d 86 bd
       0.0044932095 -0.09831721 0.07356293 -0.06560756
0003e0 0b a5 86 bd ae 79 a4 3d 3a 2e d1 bd 6f 0b c9 3d
       -0.06574448 0.08031021 -0.10213895 0.09816634
0003f0 af 1a d8 bd 1f 4a 01 bd de be 2b bd 5c fb 9b 3c
       -0.105519645 -0.031564828 -0.041930072 0.019040756

module.0.module.2.bias f4 [64]
000000 c5 da 84 bb c3 e2 e3 3c 8d 39 28 bd eb ca d0 bc
       -0.0040543997 0.02781809 -0.04107051 -0.025487384
000010 56 01 7c b3 50 07 a8 bd 58 61 ae 3c 1e 8f 97 bd
       -5.8674537e-08 -0.0820452 0.021286651 -0.07400344
000020 07 62 c4 bd a5 1d 46 3d e6 ba ec 3c 7b 85 e8 bd
       -0.0958901 0.048368115 0.028897714 -0.113535844
000030 cb 2c 6d bd 09 6d 74 bd ca 0e d2 bd 19 67 30 bd
       -0.057904046 -0.059674297 -0.10256727 -0.04306707
000040 dc b9 c2 3d c4 5c 9f 3d 64 fc 2a 3d 2d cf 02 3c
       0.09508106 0.077813655 0.041744605 0.007983965
000050 ac 9b e9 3a 53 18 31 3d 0d c6 01 bd 2c 5c a8 bd
       0.0017822883 0.043236088 -0.031683017 -0.082207054
000060 01 58 ff bd 69 12 aa 3d 36 cb b7 bd d6 9f a5 3d
       -0.12467957 0.08304293 -0.08974306 0.08087127
000070 4b 2d 7f 3d 88 9b ae 3d 45 da 7b bc ab 65 82 bd
       0.062299054 0.08525759 -0.015371864 -0.06367048
000080 cc 7b c6 bd 53 f0 8b 3d 50 81 db bd 73 58 16 39
       -0.09691581 0.068329476 -0.10718024 0.00014338065
000090 d3 9f 7a bb 6c 0c ea bb d3 e8 bc bd 37 42 90 3d
       -0.0038242235 -0.007142594 -0.09224095 0.070438795
0000a0 27 d4 c7 bd 11 06 2d 3d 99 ab d3 3c 4f 59 d2 3d
       -0.09757262 0.042242114 0.02583866 0.102709405
0000b0 ef be b8 bd 6e ad a8 bb 19 95 90 bd 9d f9 df 3d
       -0.09020793 -0.0051476276 -0.07059688 0.10936282
0000c0 30 3f 27 bd 3e b5 76 bd 6c b4 5a 3d 24 1e b4 bd
       -0.040831745 -0.06023144 0.05339472 -0.08794811
0000d0 93 97 ab bd 6b ba 87 3d 93 0c d7 bd fd af ac bc
       -0.0837852 0.06627353 -0.10500445 -0.021080012
0000e0 ca 12 ac bd 7f 04 63 bb ee 5f b5 3b fc 1c de 3c
       -0.08402021 -0.003464013 0.0055351174 0.02711343
0000f0 0b f6 0f 3d 2d 75 47 bb 15 8e 07 3e ac de 1f 3d
       0.035146754 -0.0030434832 0.13237794 0.039030716

module.0.module.4.weight f4 [256, 64]
000000 a8 22 a7 3d 16 57 86 bc 90 82 d7 3c ec b3 9d 3d
       0.08160907 -0.016398948 0.026307374 0.07700333
000010 b0 63 c7 3c 5f 5f 40 3d 9b 51 91 3d cd 77 ca bd
       0.024339527 0.046965953 0.07095643 -0.098861314
000020 68 8b 91 3d a5 e3 25 34 62 48 ef 3d 1f b2 02 3e
       0.07106668 1.5449639e-07 0.11683728 0.1276326
000030 70 5f 9b bd 8d e6 bc bd ca 67 f0 bd 5c c8 b0 3d
       -0.07586563 -0.092236616 -0.11738546 0.086319655
000040 f0 72 25 3d 75 9a a2 bc 6a d3 d9 ba c2 e8 ec bc
       0.040392816 -0.019849041 -0.0016618792 -0.028919581
000050 24 08 58 3c db b5 1a 3d 50 d3 e0 3c c5 bd 3f 3c
       0.013185535 0.037771087 0.027444512 0.011702959
000060 48 0c 4a 3a 04 16 b0 bd d3 f5 28 3b c3 ca e7 bd
       0.00077075185 -0.08597949 0.0025781288 -0.113179706
000070 cc 87 9f 3d ce 34 4e bd c9 ff 33 3d 97 0c 20 3d
       0.07789573 -0.050343327 0.043945108 0.039074507
000080 3d a8 71 bd fc 54 a6 3d e1 67 eb ba 2f ab e5 3d
       -0.058998335 0.08121678 -0.0017960035 0.11214291
000090 7a 26 d6 bd 66 9c 9b 3d 2b 19 9e bd d0 bb 8c 3d
       -0.104565576 0.0759819 -0.07719644 0.0687176
0000a0 6a 60 8d 3d 47 3a 7d bd 52 c6 b2 3c be 1c 1b bd
       0.06903155 -0.061823156 0.021823082 -0.037869208
0000b0 d6 e2 dc bd 75 c1 49 bd ea f5 58 bd 83 00 c6 bd
       -0.10785453 -0.04925676 -0.052968897 -0.09668066
0000c0 aa 84 8b bd d2 99 29 3d de 51 9b bd 7f a3 82 3d
       -0.06812413 0.04140646 -0.07583974 0.06378841
0000d0 b1 21 aa bc 0c 81 d2 3d 0f f7 7e bd 8f d7 1a bd
       -0.020768018 0.1027852 -0.062247332 -0.03780323
0000e0 bc 7b b3 bc 65 8e 54 39 a3 7c 7a bc 8f 3d 81 38
       -0.021909587 0.00020270942 -0.015288505 6.1626655e-05
0000f0 5d 0d 97 bc 69 b4 51 bd 57 22 6f bd d5 bb 98 3d
       -0.01843899 -0.051197443 -0.05838236 0.07457701
000100 39 78 3a 3d cd 88 ee 3d 73 55 99 bd b3 d1 c1 bb
       0.04552481 0.116471864 -0.07487001 -0.0059148907
000110 2a 6f 86 3a 29 ce 54 bc f6 f2 6c 3c 59 e6 47 3d
       0.0010256518 -0.012988606 0.014462223 0.04880366
000120 50 35 9c bd ec 0c bb 3c 03 7d 81 bc f7 6a 87 bd
       -0.07627356 0.02283331 -0.01580668 -0.06612199
000130 b6 23 20 3d 34 d3 ed 3d 74 31 aa 3d 77 a6 20 3d
       0.039096557 0.116125494 0.08310214 0.039221253
000140 59 59 56 bd 52 a4 d0 3c f7 37 43 3d e5 c8 c9 3d
       -0.052331302 0.025468979 0.047660794 0.09852771
000150 ae 5a 9b ba 6a 3d 00 3e 7f c9 dc 3d 81 99 8a bd
       -0.0011852586 0.12523428 0.1078062 -0.0676756
000160 f3 0f b7 3c 66 05 a2 bb 69 a3 eb bd 3c cb 8b 3c
       0.022346472 -0.004944491 -0.115057774 0.017064683
000170 86 25 e7 bd a0 87 ba bd 81 11 12 3d c4 a1 1b bc
       -0.11286454 -0.091079 0.035661224 -0.009499017
000180 ea 1b bd 3d ed 04 b2 bd f1 d0 91 bc aa d4 8c 3d
       0.0923384 -0.08692346 -0.017799826 0.068765
000190 4e bd a9 bd 75 a0 02 3a 03 e3 36 bb fb d3 39 bd
       -0.0828806 0.00049830164 -0.0027906306 -0.045368176
0001a0 e9 5a b3 3d e4 0e f1 3d f6 38 64 3d cc d8 f2 bc
       0.08757574 0.11770418 0.055718385 -0.029644392
0001b0 c9 2e d6 bd ce ab da 3d 01 9e 12 3d a3 8c 57 bd
       -0.10458142 0.106773004 0.035795216 -0.052624356
0001c0 da 31 be bc c1 c6 21 bd c9 23 9e 3d 58 56 35 3d
       -0.02321713 -0.039496187 0.07721669 0.044271797
0001d0 6a 92 e6 ba c5 d5 cc bd 46 0d c3 bd 26 11 86 3d
       -0.0017591242 -0.10001711 -0.09524016 0.065462396
0001e0 ae 4d c9 bb 41 07 93 3d 27 19 62 bd 79 95 9c 3d
       -0.0061432933 0.07179118 -0.05519977 0.07645697
0001f0 96 af e0 bb 34 89 ed bd a8 74 a6 3d 7a 63 ce 3d
       -0.006856869 -0.11598435 0.08127719 0.100775674
000200 e3 55 dc bc 73 58 44 3d 8f a7 77 bc 8b 17 03 be
       -0.026896423 0.047935914 -0.015115633 -0.1280195
000210 c8 5a 6c bc 4b 4d 83 3d 09 d3 9e bd ac 93 8b bd
       -0.014425941 0.06411227 -0.077550955 -0.068152755
000220 91 95 72 bc da 86 67 bd c5 92 86 3b 2e 93 56 bd
       -0.014806167 -0.05652509 0.0041068518 -0.052386455
000230 a4 82 c7 3d 1c 25 b0 bc 1a ee 1d bd b4 f0 c8 3d
       0.097417146 -0.02150207 -0.03855715 0.098115355
000240 a7 de eb 3d b5 4f 99 3c 22 3f c8 3d 56 4e 24 3d
       0.11517077 0.018714765 0.09777667 0.04011377
000250 0f 8f 3a bc 75 e4 aa 3c a0 16 63 3d 49 db eb 3d
       -0.011386647 0.02086089 0.0554415 0.11516435
000260 27 fc 3f 3d 11 2f 71 bd 66 0a c9 bd c9 0c a7 3c
       0.04687133 -0.058882777 -0.098164365 0.020391839
000270 34 e3 b2 3d fc c2 46 3d 69 38 b0 3c 68 08 f7 3d
       0.08734742 0.048525795 0.021511273 0.1206215
000280 d1 49 4c 3d 0f 8e 82 39 b7 31 32 bc 7c e8 a5 3d
       0.049875084 0.00024901374 -0.010876111 0.081009835
000290 89 5e 0a 3d a3 73 17 32 8d 1b 9e bd 75 b8 ff bc
       0.033781562 8.8156495e-09 -0.07720099 -0.031215886
0002a0 40 f6 cf bc 2f a4 19 bd 36 d5 98 3d 25 bf c8 3c
       -0.025385976 -0.037510093 0.07462542 0.024505207
0002b0 df c3 85 bd d2 a0 00 be 50 e2 cc bd 79 cd 7f bd
       -0.065315 -0.12561348 -0.10004103 -0.062451813
0002c0 97 f0 34 3c f1 09 9c 3d be 09 b5 bc 8f bf 2f bc
       0.011043689 0.07619084 -0.022099372 -0.0107268235
0002d0 44 73 f5 3d 85 f1 17 3d 57 40 9a bd 55 61 f6 3c
       0.11984876 0.037095565 -0.07531803 0.030075708
0002e0 6b e0 69 3c 18 8f de bb 9c c8 c3 3c 69 e1 8e bd
       0.014274697 -0.0067919604 0.023899369 -0.06976587
0002f0 a7 15 9a bd f8 5e e6 bd 72 2a 68 3d ae bd ab bd
       -0.07523661 -0.112485826 0.056681104 -0.08385788
000300 51 90 a7 3d b9 48 d3 bd 6e 3e cb bd a3 16 8e bc
       0.08181823 -0.10316605 -0.09924017 -0.017344778
000310 23 91 1b 3d d7 8a 64 bc 91 b3 88 3a 60 c5 0b 3d
       0.03798021 -0.013949118 0.0010429492 0.03412378
000320 7a f9 a6 3c 40 89 db 3d 85 84 80 3d 07 5d 25 3d
       0.020382632 0.10719538 0.06275276 0.04037192
000330 a6 99 48 bd 80 b5 84 bd 62 f8 87 bd 32 c1 09 bd
       -0.048974656 -0.06479931 -0.06639172 -0.03363151
000340 31 c8 88 bd c1 90 11 3d 1d 2f bb 3c b0 82 c5 3d
       -0.066788085 0.03553844 0.022849614 0.09644067
000350 25 02 3c b0 1b 5b cc 3d af fb 27 bc 9e 10 5f 3d
       -6.839705e-10 0.099783145 -0.010252877 0.054459207
000360 c3 bb cc bd 98 80 58 3d 45 1f 89 bd cb 14 09 3d
       -0.0999675 0.05285701 -0.06695417 0.033467095
000370 ce b0 16 bd 05 1a b6 3d 05 d1 c1 bc 63 0b 36 b9
       -0.036789708 0.088916816 -0.023659239 -0.00017361114
000380 2a 9a 89 3a 77 03 9b bd 7e d6 09 3d 43 6a 24 3c
       0.0010498215 -0.0756902 0.03365182 0.0100351
000390 92 b3 b1 3d 82 f5 af 3d 27 f7 4c 3d 86 31 41 3d
       0.086768284 0.08591749 0.05004039 0.04716637
0003a0 87 11 9d bd d6 f4 0d bd 5e ff 50 3b 99 05 49 bb
       -0.07669359 -0.034657322 0.0031890492 -0.0030673502
0003b0 9e 03 ea bd f4 66 64 bc 40 34 a7 3d 6c c7 38 ba
       -0.11426471 -0.013940562 0.08164263 -0.0007048759
0003c0 8a f2 34 b9 5d 01 ec bd 14 05 94 bd 99 3e db bc
       -0.0001725649 -0.115236975 -0.07227531 -0.026763247
0003d0 04 53 bd bd 40 35 bf 3d 97 e9 ea 3d 84 0d cf 3d
       -0.092443496 0.093363285 0.11470335 0.1011
0003e0 0e cd cf 3c 24 4d 3c 3c 87 99 b9 bc fb 01 a5 bd
       0.025366332 0.011493001 -0.022656215 -0.08057018
0003f0 97 ea 5a 3d 9f ed a4 3d 09 c7 57 3d 83 6b 25 3d
       0.05344638 0.08053135 0.05268005 0.040385734

module.0.module.4.bias f4 [256]
000000 a5 66 9a bd 23 b1 c4 bb f6 7d 26 3d 5c 36 cf bd
       -0.07539109 -0.0060025617 0.04064747 -0.1011779
000010 9e d7 c8 bd 80 93 12 3d 31 af 1b 3d a8 cc 1a bd
       -0.09806751 0.0357852 0.038008872 -0.03779283
000020 2a 53 73 3d 16 50 4d 3d 14 c7 14 bd 1f 26 2b 3d
       0.059405483 0.050125204 -0.03632267 0.041784402
000030 ab 97 f0 bd b8 a6 45 bc a3 e1 86 3d cf 53 62 bd
       -0.11747678 -0.012063675 0.065860055 -0.055255707
000040 e5 b5 c0 3d ad 86 03 3d 10 d4 11 3d 89 0b d1 3d
       0.09409694 0.03211086 0.03560263 0.10207278
000050 05 1b 1e 3d 9c 58 b1 bd b0 51 9d 3d db 16 01 3d
       0.038599987 -0.08659479 0.07681596 0.031515937
000060 dd b7 bb 3d b1 8a 06 bc 00 7c b2 3d ca 3d 3b 3c
       0.091659285 -0.008211778 0.087150574 0.011428306
000070 d2 eb bb 3d 49 17 35 bc 77 46 ad 3d d4 65 0b bd
       0.091758385 -0.011052915 0.08460706 -0.034032658
000080 6d c7 c8 bd 24 02 c7 bd 78 05 e3 bb 4f ad 1d bc
       -0.098036624 -0.09717205 -0.006928142 -0.0096238395
000090 12 bd 80 3c 11 88 d1 bb 0c d1 33 bd be 68 c2 3d
       0.015715156 -0.006394394 -0.043900535 0.09492634
0000a0 8d 28 7a bd 9e 63 32 3b aa 9f 6d bd 61 c2 e5 3d
       -0.06107383 0.002722002 -0.058013596 0.112187155
0000b0 08 24 d4 bc 2f 65 a8 bd 6d f8 88 3d 40 f4 30 3d
       -0.025896087 -0.08222424 0.066880085 0.043201685
0000c0 84 a7 61 bd 60 10 70 3d ae da e8 3d 77 14 59 bd
       -0.055091396 0.058609366 0.11369835 -0.052998032
0000d0 17 f4 0c bd ca fd f8 bc 20 6e b4 3c 8f f1 ec 3d
       -0.03441247 -0.030394454 0.022025168 0.11569511
0000e0 fd 41 ea bd 4c 46 fe bb 2f 24 de bc 3a e3 0b bd
       -0.114383675 -0.007759845 -0.027116863 -0.034152247
0000f0 ad 1c 31 bd d0 28 9f bd 05 1a f3 ba 33 80 fd 3c
       -0.043240238 -0.07771456 -0.0018547183 0.03094492
000100 b3 88 5d 3d 46 0c 04 3e 0e c4 ef 3b 83 87 c2 3d
       0.054085445 0.12895307 0.0073170727 0.09498503
000110 d2 3c f3 bd 0d 4d 72 bd 7f 4c 58 bd ca 40 a4 3d
       -0.11876835 -0.059155513 -0.052807327 0.0802017
000120 21 e0 1e bd d8 d2 67 3d ac 6c dc 3c 0b 59 e1 bd
       -0.038787965 0.05659756 0.026907288 -0.11003312
000130 98 64 c4 bd 68 55 44 bd 64 6f d9 bd d8 80 4b bd
       -0.09589499 -0.047933012 -0.10616949 -0.04968342
000140 d6 32 89 bd 04 8c e3 3d c2 36 32 3d 76 d2 2c 3d
       -0.06699149 0.1111069 0.043509252 0.0421929
000150 16 7f bc 3d 2a 84 40 3c 70 3a 64 bd a0 98 ef 3d
       0.09203927 0.01175026 -0.055719793 0.11699033
000160 ca 66 d1 bd 71 33 b3 bd a9 97 39 3d a1 4c 0b 3d
       -0.102246836 -0.08750046 0.04531065 0.034008626
000170 96 78 0f bd 88 b2 ea 3d 06 9a a6 bd 4d 07 c3 bd
       -0.03502711 0.114598334 -0.081348464 -0.09522877
000180 14 04 6a bd 64 f6 cb 3d ac df 61 3c 35 d3 f6 bd
       -0.057132795 0.09959105 0.013786238 -0.12052003
000190 1d d4 3a bc fc 59 87 bd 4c 4e e3 3d d0 4c 98 3d
       -0.011403111 -0.0660896 0.11098918 0.07436526
0001a0 dc e9 b3 bd 60 16 ef 3c 97 ba 5c 3d 62 24 23 bd
       -0.087848395 0.029185474 0.053888883 -0.03982962
0001b0 f4 a7 ab 3c 5b 59 28 bd 7d 18 2d bd bc 36 bd 3d
       0.02095411 -0.04110084 -0.042259682 0.092389554
0001c0 94 70 a6 3d 84 75 b0 3d a0 e4 ae 3d 01 2b 65 3d
       0.08126941 0.08616164 0.085397005 0.055949215
0001d0 65 dd 6b bd 28 35 e5 3d ad 8f 60 bc 87 07 35 3c
       -0.057584185 0.111917794 -0.01370613 0.011049158
0001e0 97 00 ee 3c 0d 63 1a bd 30 ed 8e bb 24 c8 92 bd
       0.029053016 -0.03769212 -0.004361771 -0.0716708
0001f0 3a 86 0b bd 86 da 5a bd ee 4f fb 3c d4 5c 81 bd
       -0.034063555 -0.053431056 0.030677762 -0.06316534
000200 57 57 59 3c a8 89 ea 3d 8f 03 b8 bd 7f b8 98 bd
       0.013265452 0.11452037 -0.08985054 -0.07457065
000210 4a b9 a1 bd fb cc 42 3d b5 02 ed bd 6a 7b d3 3d
       -0.07896669 0.047558766 -0.11572782 0.10326274
000220 f5 5e 8b bd 0f c0 d0 bd ca c9 41 3c 29 c2 0c 39
       -0.06805221 -0.10192882 0.011827895 0.0001342377
000230 be 36 bd 3d b7 cd 96 3b 00 48 d5 3c ae 18 aa 3d
       0.09238957 0.00460216 0.026035309 0.083054885
000240 20 35 9a bd ac d5 94 bd 23 88 18 bd 9c 88 95 3b
       -0.07529664 -0.07267317 -0.037239205 0.0045634042
000250 70 cc 74 bd 37 e6 fa 3b 6a de 07 bd 7f 22 7a 3c
       -0.05976528 0.0076568383 -0.033171095 0.015267014
000260 e4 d5 44 bd 22 c4 e9 bd ce d1 ba bc 10 1c 22 3d
       -0.048055544 -0.114143625 -0.02280512 0.039577544
000270 be 92 42 3d f2 bb 29 bd da b6 55 bd 15 3c 2a bc
       0.047503226 -0.041439004 -0.052176334 -0.010390301
000280 08 95 6b bd aa 9a f7 bd 73 bb 4d 3d 28 95 ed bd
       -0.057515174 -0.12090047 0.050227594 -0.11600715
000290 18 b6 d0 3c b3 07 50 bd 6a e9 da bd 2d 9b df 3d
       0.025477454 -0.050788593 -0.106890514 0.10918269
0002a0 c9 c1 6d 3d 6a 52 b8 bd 9f c4 e0 3d 7d 36 9e bb
       0.058046136 -0.09000094 0.109750025 -0.004828273
0002b0 99 25 28 bd e4 71 b1 3d a9 ea d7 bd e1 1e 79 3c
       -0.04105148 0.08664301 -0.10542805 0.015205116
0002c0 ba 95 41 3d 9b 82 6c bd 11 7d f8 3d c2 6b 02 be
       0.04726193 -0.057741743 0.121332295 -0.12736419
0002d0 5f 71 8a bd f0 88 80 3c 7c 1e d6 bd 72 1d f9 bd
       -0.06759905 0.015690297 -0.10455033 -0.121638194
0002e0 11 7c 94 bc 2d da d0 bd a8 f2 86 bd 4d 43 ad 3c
       -0.018125566 -0.10197864 -0.06589252 0.021150256
0002f0 37 2c f8 3d 80 e8 c0 bd 4d fb c2 bd e2 d7 7f bd
       0.12117808 -0.09419346 -0.09520588 -0.06246174
000300 6e 5f f6 bd 38 61 99 bd 59 f8 d2 3d d5 66 d5 3c
       -0.120299205 -0.07489246 0.10301275 0.02605001
000310 3b aa 48 bd b3 63 0f 3e c2 b0 6c 3d a0 6c d7 3d
       -0.04899047 0.14002876 0.057785757 0.105187654
000320 af df 94 bd fc df d4 3c 4d c5 b8 3d 7a fb 93 bd
       -0.07269227 0.02598571 0.09022007 -0.072257
000330 5d ba b2 3d c6 fa 60 3c d7 08 5b bd 2c 25 84 bd
       0.08726952 0.013731664 -0.053475227 -0.064524025
000340 52 4d cf bc c4 75 0a 3e 37 16 18 bd 46 67 96 bc
       -0.025305424 0.13521487 -0.03713056 -0.018359791
000350 9f cd e7 bd 70 fa 58 3c d9 20 e0 bd cc 0e 7a 3d
       -0.11318516 0.013243303 -0.10943765 0.061049268
000360 9a 83 00 3e e8 a2 14 bd 59 66 16 bc 09 84 36 3c
       0.12550202 -0.036288172 -0.009179675 0.011139878
000370 7e ef 5b bd 5b 97 42 3c 3c 1c d5 3d 07 bf 8e 33
       -0.053695194 0.011876906 0.10405776 6.647138e-08
000380 80 a7 57 bc 0a de 94 3d 02 af 04 bd 60 65 2d bd
       -0.013162494 0.07268913 -0.032393463 -0.042333007
000390 1f 78 eb bb 2c fc a0 3d c0 50 c5 bd a6 a2 dd 3d
       -0.0071859504 0.07860598 -0.096345425 0.10822038
0003a0 53 99 3d bd 1b 64 61 3d 58 50 8c bd db ca bd bc
       -0.0462888 0.05502711 -0.06851262 -0.023168018
0003b0 66 5f bf bd e3 fd 98 3d d7 f6 0a bd a9 ea 37 3d
       -0.09344368 0.074703 -0.03392681 0.044901524
0003c0 c1 d6 9f ba a6 ae f5 3a 07 5a 84 bc 4a 3d be bc
       -0.0012194739 0.0018744066 -0.01615621 -0.023222584
0003d0 13 ae 8e bd 82 9d b7 3c 45 1e 4f bd 9f 3b 00 bc
       -0.06966796 0.022413973 -0.050565977 -0.007826715
0003e0 62 29 14 bc 19 64 5b bd bc 03 d6 3d 37 e3 00 bd
       -0.00904307 -0.053562257 0.10449931 -0.03146669
0003f0 09 32 c1 bc 44 b9 8f 3c 08 2d b7 3b 04 80 da 3c
       -0.023583429 0.017544396 0.005590085 0.02667237

module.1.module.0.0.weight f4 [128, 256]
000000 19 2f 58 3d b5 2a 2e 3d 8c 3f 03 bd d9 28 13 bc
       0.05277929 0.042521197 -0.032043025 -0.008981907
000010 d3 b9 c1 3c 76 5e a3 bc 4a 64 1c 3c 01 98 46 bd
       0.023648178 -0.019942503 0.009545395 -0.048484806
000020 92 f2 be bc f6 de be 3b 81 c7 81 3c 7a 3a 20 3d
       -0.023309026 0.005824919 0.015842201 0.039118268
000030 a1 fc 9f bc a9 e8 d4 bc d3 4f f0 bb c2 56 b4 bc
       -0.019529643 -0.025989847 -0.0073337345 -0.022014026
000040 fe e4 49 3d 11 1e 0d bd a8 2a 23 bc f6 08 b3 3a
       0.04929065 -0.0344525 -0.0099589005 0.0013659287
000050 cd c8 6b bd 58 14 58 3d 78 8a d2 bc b3 c7 24 3d
       -0.057564545 0.052753776 -0.025700793 0.04022951
000060 7e 9c d4 bc 58 2c 6e 3c c1 c6 f3 3c ba 98 cb bc
       -0.025953528 0.01453694 0.02975786 -0.0248531
000070 b4 38 43 bd 49 60 81 bc 8f 7b 66 bd d5 b0 59 3c
       -0.0476615 -0.015792983 -0.05627018 0.013286789
000080 d6 6e f3 3c 42 e0 23 3d 67 8a 58 bd 9d 31 84 bd
       0.029715937 0.04000879 -0.052866366 -0.064547755
000090 3f 99 3f bd 71 0e 33 bd 4f cb fc 3c ca 2b 7f bd
       -0.046777006 -0.043714944 0.030858664 -0.06229762
0000a0 a1 47 42 bd 43 4c 38 bd df cd ce bc 52 9a 37 b9
       -0.047431592 -0.044994604 -0.025244651 -0.00017509729
0000b0 f7 08 ba 39 1e 22 98 3c ae 79 eb bc 8d bf 78 3c
       0.00035483364 0.018570956 -0.028744545 0.015182388
0000c0 af 3f b2 3b 5a 78 37 bd 7a 4e 7a bb 32 44 25 3c
       0.0054397206 -0.04479251 -0.0038193748 0.01008706
0000d0 c1 60 4f bd 52 34 7b bd d1 38 38 bd 46 0d ab bb
       -0.05062938 -0.061329193 -0.04497606 -0.005220088
0000e0 8e 9c 04 bc 54 46 5c 3d f4 fd 1b 3c d2 c0 e0 bc
       -0.008093966 0.053778008 0.009520996 -0.027435694
0000f0 ad 28 2e 3d 17 cb 78 3c 5d a7 4d bb b5 af ff bb
       0.04251926 0.015185139 -0.0031380274 -0.0078029283
000100 88 26 5e bd f4 e7 3c bd ec c2 86 bd 98 19 02 bd
       -0.054235965 -0.046119645 -0.06580147 -0.03176269
000110 90 9e 0f bd 7a e7 4e 3c 27 4b c2 b9 7d ca 1d 3d
       -0.035063326 0.0126284305 -0.00037058556 0.038523186
000120 1c 37 b3 3c 65 8b 59 3d 9c 73 58 3c 45 a6 40 3d
       0.021876864 0.053111453 0.013211157 0.047033567
000130 a0 57 f0 3c 3c 35 5f 3b 72 a1 80 bd 76 00 b8 bc
       0.029338658 0.003405883 -0.06280793 -0.022461157
000140 37 34 e2 bc d6 c3 ca bb 5b 69 19 bd 8a af 3d 3c
       -0.027612789 -0.0061878962 -0.03745399 0.011577496
000150 00 9e 3a 3d 08 f4 74 bd df 2f 19 3c c4 f5 61 3d
       0.045560837 -0.05980304 0.009349792 0.05516602
000160 e2 fe 35 3d 50 c9 5c 3d 9d db 53 bd ad a7 05 bd
       0.04443253 0.053902924 -0.05172311 -0.03263061
000170 4b 1e 1a 3c f5 c7 ce bc 99 8e 99 3a 20 2b 13 3d
       0.0094066365 -0.025241831 0.0011715471 0.0359298
000180 bf 05 13 bd 6a a7 49 3d 62 1e 0f 3b 95 52 d6 3c
       -0.03589415 0.049231924 0.0021838178 0.026162425
000190 b1 24 9b 3c 0c d0 7c 3d 7a ee 2d bd 98 eb 1d bc
       0.018938394 0.061721846 -0.042463757 -0.009638689
0001a0 aa 6f a5 3c fd 2f 43 bd 9c 75 70 bd 4e 73 5c 3c
       0.020194847 -0.047653187 -0.05870591 0.013455225
0001b0 38 38 61 bd 03 b5 87 3b 08 eb 98 3c c7 5a 34 3d
       -0.054985255 0.0041414513 0.01866676 0.044031885
0001c0 78 88 24 3c 66 99 99 3c 6f 25 83 bd 32 3a 04 3d
       0.010042302 0.018749904 -0.06403624 0.032282062
0001d0 79 a3 4c 3d 2c 69 f0 bc 8e 16 d4 b8 bc 9b 98 bd
       0.049960587 -0.029347025 -0.00010113149 -0.07451579
0001e0 1f 7f 77 bd 7b 47 34 ba 00 d4 39 bd 7b 43 6e 3d
       -0.060423966 -0.00068771065 -0.045368195 0.058169823
0001f0 a7 af 16 3d cd e3 78 bd cf c8 d6 bb e0 14 c3 3c
       0.03678861 -0.060764123 -0.0065547 0.023813665
000200 ab e6 bc bc f2 e9 d9 bc 18 90 0c 3d 8f 63 ac 3a
       -0.02305921 -0.026600812 0.034317106 0.0013152229
000210 7d 43 8d bc 00 3f 09 bd 21 bb 3d 3d 42 84 3f 3d
       -0.017244095 -0.033507347 0.04632104 0.04675699
000220 b8 c2 0a 3d 92 54 d1 bc 67 a4 06 bd ae 20 42 bc
       0.033877105 -0.025553022 -0.03287163 -0.011848612
000230 57 ab 58 3d 10 e4 1f bd c1 35 a1 3b 94 73 22 bd
       0.052897777 -0.039035857 0.004919738 -0.039661005
000240 ed 49 d2 b8 3d 8a e6 39 ee 2c 8d 3d 1e 3a 66 bc
       -0.0001002735 0.00043972014 0.06893335 -0.014051942
000250 19 f3 1b bd bf 9c 61 bc 02 30 5f bc 4a bb e4 bc
       -0.038073633 -0.013770281 -0.013622286 -0.027921338
000260 6a b5 b1 3c d7 48 d5 bc 01 fe c4 bc 83 08 76 bd
       0.02169295 -0.02603571 -0.0240469 -0.06006671
000270 46 24 98 3c 7c 93 60 3b 20 b6 80 3d cd 00 6c 3a
       0.018571984 0.0034267595 0.062847376 0.0009002805
000280 af 0f 89 39 4b 86 44 3d 4c ba a1 bc 64 1f f6 bb
       0.00026142361 0.047979634 -0.019742154 -0.0075110663
000290 fe 99 65 3a 15 14 01 3d 7a 57 4e 3d 05 61 7d bc
       0.00087586034 0.031513292 0.050376393 -0.015465026
0002a0 3a 14 12 3d 6d 8c 7f bd 69 7a 2e bd 35 61 1f bd
       0.03566382 -0.06238978 -0.04259721 -0.038911063
0002b0 fd 9b 79 bd d4 73 0e 3d 65 63 56 bb a5 c3 1e bd
       -0.060939778 0.03477843 -0.0032713052 -0.0387608
0002c0 d2 0e 27 3d 8d f3 ca bc 15 4f b8 bc ca 2c eb 3c
       0.040785618 -0.024774337 -0.022498647 0.02870788
0002d0 95 e1 6f bc bd 3f 41 3d 55 ed 6c bd 56 22 43 3d
       -0.014641185 0.047179926 -0.057843525 0.047640167
0002e0 68 12 fb 3c 4e 6b ef b8 f2 a0 d9 bc 7c 76 66 bd
       0.030648425 -0.00011416395 -0.026566003 -0.05626534
0002f0 8a 34 9a bc bd 88 59 bd 09 5b a7 bc 3b 36 09 bd
       -0.01882388 -0.05310892 -0.020429151 -0.033498984
000300 20 38 cc bb 6f cf 76 b1 61 95 f8 3c 53 c1 33 bd
       -0.0062322766 -3.5915624e-09 0.030344667 -0.04388554
000310 45 c5 fa 3c e1 a3 67 3d 9e 8d e9 3b 35 6d 0a bd
       0.030611644 0.05655277 0.007127478 -0.033795554
000320 39 a2 ce bc b0 e5 c6 bc 4b 1f a9 3c d7 12 6a bc
       -0.025223838 -0.024279445 0.020644804 -0.014286718
000330 f6 f6 bd bc e8 2c 23 bb 90 30 33 3d 4e 43 8d bc
       -0.02318905 -0.0024898592 0.043747485 -0.017244007
000340 8f 96 8f bd 0f a7 1b bd 23 73 6f bc e0 24 5f 3d
       -0.07011139 -0.038001116 -0.014614853 0.054478526
000350 15 cd 0e bb 3f 43 d8 3b 26 61 ff 3b c2 98 74 3c
       -0.002178972 0.0065998132 0.0077935634 0.014928998
000360 ac 08 6a 3d 87 33 49 3d f4 d9 24 3d 45 49 21 3d
       0.057137176 0.049121406 0.04024692 0.039376516
000370 b4 1f 4e bb 9f f5 32 bd d4 16 5f 3d 36 60 ba 3c
       -0.0031452002 -0.043691274 0.05446513 0.022750955
000380 64 d7 ba 3b 7e 49 81 bd b7 7e 47 ba 09 ae cc bb
       0.005701946 -0.06312846 -0.00076101295 -0.0062463325
000390 5e 4b 66 3d 2c c5 49 3c 9f ed 38 3c 0a da d3 bc
       0.05622422 0.012315076 0.011287122 -0.025860805
0003a0 e5 c0 95 3a 5b b5 4c 3d 42 b7 37 bd d6 2a a2 3c
       0.0011425285 0.04997764 -0.044852503 0.019795816
0003b0 3e fc 94 3c 7f b1 7d bd 32 fa c3 3c 6e 8a e1 bc
       0.018186685 -0.06193685 0.023923013 -0.027531829
0003c0 8a a9 fc 3c 71 44 51 bd 5f c1 b1 3c a6 3b f6 bb
       0.030842561 -0.05109066 0.021698652 -0.007514435
0003d0 3e 21 bb 3c 01 07 dd bc 5a 0d 63 3b 0f fb 9d bc
       0.022843 -0.026980879 0.003464541 -0.019284753
0003e0 5f 44 21 3d 2c 9c 78 3c 6e 68 34 bd 0e 79 0f 3c
       0.039371844 0.015173953 -0.044044904 0.008756889
0003f0 38 f0 48 3d cd f8 e7 bb 22 53 e2 bc 98 82 27 3d
       0.049057215 -0.00707922 -0.027627531 0.04089603

module.1.module.0.0.bias f4 [128]
000000 36 f0 c4 bc c8 4a f6 bc 38 1d 9d 3c 8d 5a 26 3d
       -0.024040323 -0.030064955 0.019178972 0.0406137
000010 ca fa d8 3b 5d d2 02 bc c0 ec 1c bc e5 ae ef 3b
       0.0066216933 -0.007984725 -0.00957793 0.00731455
000020 f2 3f 53 3d 73 e9 3e 3d 48 00 33 bd d3 93 57 bc
       0.051574655 0.046609353 -0.04370144 -0.013157803
000030 c4 65 b0 bc 53 e8 51 bd f9 db 6a 3c d2 b8 0b bc
       -0.0215329 -0.051246952 0.014334672 -0.008527951
000040 c4 81 23 bd 14 4c 72 bc 5f 2c cf bb d8 21 24 3d
       -0.039918676 -0.014788646 -0.006322428 0.04007134
000050 df 96 17 bc 84 35 12 bd 55 c5 95 bc 0e 60 6b bc
       -0.009252279 -0.035695568 -0.018282572 -0.014366163
000060 ca cb ed bc 40 15 95 bc f1 c7 8b 3c ce e4 5f bd
       -0.029027838 -0.01819861 0.017063113 -0.054661565
000070 de 5b 36 3d 73 9e 39 3d 17 0f 08 bd aa db 21 bd
       0.044521205 0.045317125 -0.033217516 -0.03951613
000080 0d 5d 86 bd 43 0a 96 3c a4 62 89 3c 82 11 0d bd
       -0.06560717 0.01831544 0.016770668 -0.034440525
000090 cd 73 67 bd d3 96 ed bc 1e e8 ee bc ef 91 ad 3c
       -0.05650692 -0.029002583 -0.029163416 0.02118775
0000a0 ca 41 68 bd f2 be b5 3b 4b a4 53 bb 57 5f 3b 3d
       -0.056703366 0.005546444 -0.003229397 0.04574522
0000b0 c1 1f 0c bd da 8e 30 bd 63 72 9e bc 75 e1 12 3d
       -0.03420997 -0.043104984 -0.019341653 0.035859544
0000c0 42 d7 ee bc 95 0b aa 3c d5 cc 1d bd 6e 83 32 bd
       -0.029155377 0.020757476 -0.03852542 -0.043582372
0000d0 8c c9 03 bd 7f 24 4b 3d 43 fc 0a bd 6c c5 40 3d
       -0.032174632 0.049595352 -0.03393198 0.047063276
0000e0 b4 9e 07 3d d7 31 cc 3a e2 96 71 bd ad e4 50 bd
       0.033110335 0.0015578818 -0.058981784 -0.050999332
0000f0 e5 3e db bb d5 75 6b bd 87 39 94 bb 51 aa 78 3d
       -0.006690847 -0.05748542 -0.0045234594 0.0607093
000100 57 7e 93 3c 8a 18 65 3c a3 90 7d 3c 3e 19 15 3d
       0.01800458 0.013982901 0.015476379 0.036401026
000110 8e e8 8a bd 8a f1 85 bc 8f dc a2 3c 3c 6c a8 3c
       -0.067826375 -0.016350526 0.019880561 0.020559423
000120 86 78 b7 bc 92 65 2b 3c dc 64 f7 bb 61 c5 56 3d
       -0.022396337 0.010461228 -0.007549865 0.05243433
000130 ea c8 08 bd 08 01 4a 3a e1 03 58 bb 87 3d f8 bc
       -0.03339473 0.0007705842 -0.0032961296 -0.030302776
000140 e1 c8 32 bd 62 5d a9 bc 2e 83 f0 bc 5b 98 00 3d
       -0.043648604 -0.020674411 -0.029359426 0.031395297
000150 af 81 9c bb fe 50 42 3c 01 ef 42 3d 82 7d e6 bb
       -0.0047762017 0.01186013 0.047591213 -0.0070340047
000160 a3 90 5f 3d 54 72 11 bd 80 d3 3e 3d 79 96 63 bd
       0.054581296 -0.035509422 0.04658842 -0.055563424
000170 0e ab ec 3c 7f 2e 40 bc 78 62 f1 bb ad 45 b0 3c
       0.028890159 -0.0117298355 -0.0073664747 0.021517599
000180 e1 98 5b 3c d7 eb c4 bc e5 1b 02 3c 58 f8 54 3d
       0.013403148 -0.024038238 0.007941221 0.05199465
000190 71 8e bb bc 34 77 9f bc 7c 70 29 3d 96 8c 8c 3c
       -0.02289507 -0.01946602 0.04136704 0.01715688
0001a0 d8 21 06 bc b0 8e 62 3d 2c f4 9e 3c e0 13 7b 3a
       -0.00818678 0.05531186 0.01940354 0.0009577852
0001b0 e0 fa 25 3d b8 64 1b 3c 57 60 5f 3d cb 09 59 bd
       0.040522456 0.009484462 0.054535236 -0.052987855
0001c0 70 32 3d 3d 02 27 1d 3d e2 7f 09 bd 6d bc 42 3d
       0.04619068 0.03836728 -0.033569224 0.047542978
0001d0 2c 2d a5 3c 5e 28 87 3c 58 ac 84 bd 1c 5b 3e 3d
       0.020163141 0.01649874 -0.064781845 0.046473607
0001e0 3c 0f 4e 3d 30 25 51 bd e5 8b 58 bd 8c ec 3f bd
       0.050307497 -0.051060855 -0.05286779 -0.046856448
0001f0 8b 26 0c bd c9 0e c4 bc 15 8e e0 3c bb 40 23 bd
       -0.034216445 -0.023932831 0.0274115 -0.039856654

module.1.module.0.2.weight f4 [2, 128]
000000 ba a6 d1 bc 17 00 64 bd 0a fd 6e 3d 3f ef 9b 3c
       -0.025592197 -0.05566415 0.058346786 0.01903498
000010 52 d7 a4 3d fb d5 fd 3c 16 91 a9 3d 5b 03 9a bd
       0.080488816 0.030985823 0.08279626 -0.07520171
000020 d8 bc b4 3d 36 37 52 3d fc 8c 48 3d 2f 6a 56 3d
       0.088250816 0.051322185 0.04896258 0.05234736
000030 7e fd d4 bc 24 a0 9e bd a4 14 a1 bd 83 f5 4d 3d
       -0.02599978 -0.07745388 -0.07865265 0.050282966
000040 5c 96 d2 3c f5 9e a1 3c 31 54 8a 3c 81 fc ce 3c
       0.025706463 0.019729117 0.016885849 0.025266888
000050 c5 9e dc 3c e0 21 91 3c 7f 91 40 bd 32 3b 56 3c
       0.026931176 0.017716348 -0.047013756 0.013075637
000060 20 5d 9d bc 05 aa ac 3d 86 9e 66 3d b0 b6 ba bd
       -0.019209445 0.08430866 0.056303523 -0.09116876
000070 a5 a7 5f bd 8c a7 8f 3c 7d 4b 46 3d ae 56 f0 bc
       -0.054603238 0.017535947 0.048411835 -0.029338207
000080 82 b0 25 bd 14 4e ac bd e4 19 19 bc 6f ce a0 3d
       -0.040451534 -0.0841333 -0.009344552 0.07851874
000090 1d fa 52 3d 07 50 3e bd b3 a6 40 3d b2 15 66 bd
       0.051508058 -0.04646304 0.047033977 -0.056173034
0000a0 17 99 de bc b0 ff 91 bd 1b ae b5 3d f5 b5 34 3d
       -0.027172608 -0.07128847 0.088710986 0.04411884
0000b0 09 86 35 3c 3c bc 3c 3d 4c e3 3a bd c5 28 0c 3d
       0.01107932 0.04607795 -0.045626923 0.03421857
0000c0 ae 32 11 bd 68 a9 63 3d a9 d3 54 3d 0f 29 73 bd
       -0.035448723 0.05558148 0.051959667 -0.05936533
0000d0 c3 e6 15 3d 24 d3 79 bc a4 14 83 3c bd 19 99 3d
       0.036597025 -0.015248094 0.016001053 0.07475612
0000e0 69 4f 97 bd 85 b6 37 3c e1 28 3b 3d 55 45 4f bd
       -0.07388193 0.01121295 0.045693282 -0.05060323
0000f0 4a 1b 2d 3d 26 0a a1 3d ec 06 88 bc d2 2e d7 3c
       0.042262353 0.07863264 -0.016604863 0.026267443
000100 86 47 aa bd 58 ea 9d bd 7f e0 33 3d 3b 04 8d 3d
       -0.08314423 -0.07710713 0.043915268 0.068855725
000110 cc 0a 97 3d b3 8f 13 3d 26 e8 92 bd 2b 4d ee bc
       0.07375106 0.036025714 -0.07173185 -0.02908953
000120 44 85 88 bd cf 54 59 bd 39 5f 82 bd f6 48 8b bd
       -0.066660434 -0.053059395 -0.063658185 -0.068010256
000130 e6 bd b1 3d 4a 94 ef bc 8f a9 45 bd 40 31 40 3d
       0.086787984 -0.029245514 -0.048257407 0.04692197
000140 24 6f 88 3d 6b eb 89 bc 5d e9 92 3a cf 66 bd 3d
       0.066618234 -0.016835889 0.0011208464 0.09248125
000150 1a 45 bc bd ea 8a 35 bd 58 ab 48 3c 03 3b 4e bd
       -0.091928676 -0.044321932 0.012247883 -0.050349247
000160 dd 26 4c 3d 6b 95 4f bd c3 b3 54 bd be f6 b6 3c
       0.04984175 -0.050679605 -0.051929247 0.022334453
000170 41 ed ab bd 77 ae e8 3c 75 17 50 bc c8 14 20 3d
       -0.08394862 0.028403504 -0.012700905 0.03908232
000180 6f f3 97 bd 99 ab 30 3d ca b4 d9 bc 7f fb 34 bb
       -0.07419478 0.0431324 -0.026575465 -0.0027615724
000190 9b 78 a0 bd fb 72 35 3b bc 80 93 3d 17 7c 08 bd
       -0.07835504 0.0027686942 0.072022885 -0.033321466
0001a0 07 33 a6 bd 68 df 1e bd ef 6b 5c bd 6d 46 53 3d
       -0.081152014 -0.038787276 -0.05381387 0.051580835
0001b0 57 3a 92 bd a2 0c 1d 3d 91 e8 5c 3d 12 c4 96 3b
       -0.07140034 0.038342126 0.05393273 0.00460101
0001c0 a4 9e b2 3d 30 be b1 bd 35 fc a4 3d 50 39 c0 3c
       0.087216645 -0.086788535 0.08055917 0.023464829
0001d0 94 5b 47 bd 3a 87 a1 bb 74 d4 c7 3c 1c 17 9f bd
       -0.04867132 -0.0049294503 0.024393298 -0.0776808
0001e0 12 93 cc bc 13 04 ac 3d 64 51 4a bd f1 79 38 bd
       -0.024972472 0.083992146 -0.049394026 -0.045038167
0001f0 71 ba f4 3c 30 dd e2 bc 91 2d 75 3c af 4b c2 ba
       0.029874058 -0.027693361 0.014964477 -0.0014823581
000200 fa c8 86 3d 1f f8 65 3c 30 f6 28 bd 8e ac fb 3c
       0.06581302 0.014036207 -0.041250408 0.030721929
000210 4b ff a8 bd 00 89 bd bc c3 ce cc bc 25 c3 8e 3c
       -0.08251818 -0.023136616 -0.025000935 0.017427037
000220 43 19 22 3b b3 f4 6e bc 8a 4c 59 bd 61 dd 3e bc
       0.0024734295 -0.014584708 -0.05305151 -0.0116494605
000230 c6 a9 9b 3b c4 b9 76 3c b4 21 f1 bc 70 26 01 bc
       0.004750463 0.015058938 -0.029435016 -0.007882699
000240 3e 7d 86 3d b2 f8 0b 3d d5 ae 31 3d d7 3c 82 bd
       0.06566857 0.03417272 0.043379623 -0.063592605
000250 22 16 c5 bb 5b d5 9d 3d 83 ba 30 3c 40 82 02 3d
       -0.0060146013 0.0770671 0.010786655 0.031862497
000260 b8 dc b2 3d e5 36 30 bd 90 52 1d 3d 35 61 8c bd
       0.08733505 -0.0430211 0.038408816 -0.06854478
000270 53 45 bf 3c 60 ae 21 bd b5 58 94 3d a4 95 58 bc
       0.023348486 -0.039472938 0.07243482 -0.013219271
000280 09 89 7f 3d 62 fa 83 3c 12 85 e5 3b 2b 6b eb 3b
       0.062386546 0.016110603 0.0070043886 0.0071844063
000290 f8 9e 45 3d 65 84 a0 bd 92 76 dd bc f3 50 ba 3c
       0.048247308 -0.07837752 -0.027034078 0.022743678
0002a0 6b 4a aa 3d fb 7b cd 3c cc 47 8a 3c c0 00 ff bc
       0.08314975 0.025083533 0.016879939 -0.031128287
0002b0 0b 78 73 bd bb bf 8e bd 62 57 bf 3c 93 2a 8d 3c
       -0.059440654 -0.069701634 0.023357097 0.017232215
0002c0 bf a4 b8 3d ed 70 8d 3d d0 07 9c 3c 2d 9a 76 3d
       0.09015798 0.069063045 0.019046694 0.060205627
0002d0 ab a6 53 3d fa 6f a7 bd ea 33 86 3c 39 84 16 bd
       0.05167262 -0.08175655 0.016382176 -0.03674719
0002e0 73 3c 67 bc f2 fa 5b 3d 5b 65 93 3d 17 a2 b8 3c
       -0.014113533 0.053706117 0.071970664 0.022538228
0002f0 67 c0 0e 3d fe 2f 76 3c 21 84 3d 3d cb 1c bb bd
       0.034851458 0.015026091 0.046268586 -0.09136351
000300 f1 7a a1 bd d6 c1 1d 3d 7c a2 ee 3c 80 c4 50 bd
       -0.07884777 0.038514934 0.029130213 -0.050968647
000310 24 9e 3f 3d 5c c7 fc 3c 86 5b 94 3d 1f 99 86 bd
       0.046781674 0.03085678 0.07244019 -0.06572174
000320 89 18 a0 bd bc 9a b8 3d 03 91 9e bc 07 c9 c3 bd
       -0.0781718 0.09013888 -0.019356256 -0.09559827
000330 ac bb f0 3c c1 d0 0f bd d5 0c 0e 3d 41 13 7b 3c
       0.029386364 -0.035111193 0.034680206 0.015324415
000340 90 5a 8b 3d 33 72 e6 38 2c fd b3 3d 15 81 b2 3d
       0.06804383 0.00010988526 0.08788523 0.08716027
000350 6a 9e 88 bd 87 82 82 3d c9 06 b2 bc b8 d0 a0 bd
       -0.0667084 0.06372552 -0.021731751 -0.0785231
000360 d0 ed 8f bd 65 74 5c bb 29 f2 82 3c 5e 3e f4 3c
       -0.07027781 -0.0033638712 0.015984612 0.029814895
000370 5a 5d 20 bd 94 88 c9 3c 3f e4 15 bc 24 54 be 3b
       -0.039151527 0.024601258 -0.009148656 0.00580837
000380 34 3e 85 3d 10 8d 1c bd ed 0a 9f 3a eb 9a c6 bd
       0.06506005 -0.038220465 0.0012133993 -0.09697517
000390 7a 2a 5b bd 32 a9 87 bd 75 2b f3 bc 0d d4 68 bd
       -0.053507306 -0.06624068 -0.029683808 -0.056842852
0003a0 73 60 a2 3d 7a 38 77 3d 67 40 6c 3d af 62 90 bd
       0.079285525 0.060356595 0.057678606 -0.070500724
0003b0 53 e1 41 3d e8 f7 ad 3b 28 9a e3 ba 35 a3 36 bc
       0.047334027 0.0053090937 -0.0017364668 -0.01114731
0003c0 7e e2 82 bc bf ef 83 3d c0 bd 28 3c 78 5e ac 3d
       -0.01597714 0.06442212 0.010299146 0.08416456
0003d0 cc b7 6b 3d 04 21 0d 3d a2 e2 56 3c ab 9e 6b 3d
       0.05754833 0.034455314 0.013115557 0.057524364
0003e0 1b 94 a8 bd 9f 09 23 bd be 1d 3c 3d 65 5a 33 3c
       -0.08231374 -0.039804097 0.0459268 0.010946845
0003f0 62 d9 ee bc d8 90 06 bd ac 2d d9 3b 74 f4 7f 3d
       -0.02915639 -0.032852978 0.006627759 0.062488988

module.1.module.0.2.bias f4 [2]
000000 1d 3e de bc 03 15 51 3d
       -0.027129227 0.05104543
