data/weights/weights2.pt (torch, 91215 bytes, 8 tensors)

module.0.module.0.bias f4 [64]
000000 7b 8e 65 be 6e 92 7f be ca d2 69 bd 46 5c 65 be
       -0.22417633 -0.24958202 -0.05708579 -0.22398481
000010 fb 13 36 3e 0e b6 a2 3c 22 b3 75 3e 99 b2 1c 3e
       0.1778106 0.019862201 0.23994115 0.15302505
000020 11 3c 28 be 0a bb 3a be c8 32 45 be 90 0d 0e 3e
       -0.16429164 -0.18235412 -0.19257653 0.13872361
000030 84 b1 c0 bd cf b7 c8 3d a8 f4 64 bc 54 cf 39 3e
       -0.094088584 0.09800684 -0.013974346 0.18145496
000040 cd 16 2f be 33 6a e1 3c 50 87 02 be 90 a1 52 3e
       -0.17098542 0.02751646 -0.1274693 0.20569444
000050 d5 07 89 3e 6d 6e 91 3e 21 83 61 3e 50 e1 5d be
       0.26763788 0.2840456 0.22022678 -0.21667981
000060 73 4e 8d 3e 9d ec ad 3d fb c4 2c 3d 92 82 1b 3e
       0.27598915 0.08492396 0.042180043 0.15186527
000070 a1 38 45 3d 29 4c a0 bc da 75 88 3e 79 a2 52 3c
       0.04814971 -0.019567566 0.26652414 0.012856119
000080 9b 6c 76 3d 3a 53 1c 3e cd 93 90 3d 09 e8 c2 3c
       0.060162168 0.15266123 0.07059441 0.023792284
000090 87 ee 9b be 9f 1b 76 3e 41 9d 6e be 98 b9 99 3e
       -0.3045542 0.24033974 -0.23302175 0.3002441
0000a0 c3 9e 28 3d d0 5a 8a bd f5 d8 4b be 97 0b 3e be
       0.041167032 -0.06755602 -0.19906981 -0.18559109
0000b0 60 e9 40 3e 66 d0 38 3d 04 3b bb 3d 63 23 30 3e
       0.18839025 0.04512062 0.09142116 0.17200999
0000c0 00 ea 6b be 5d a4 67 3e c6 2a 5c 3e fd 1b 88 3e
       -0.23038483 0.22621293 0.21500692 0.26583853
0000d0 f1 4e 87 3e 1e b9 37 3e 07 65 84 3c 7f d8 63 bd
       0.26427415 0.1794171 0.016161455 -0.05562639
0000e0 bf 98 51 3e 35 40 e3 bd 0f 11 f4 3b 8a e5 a0 bd
       0.20468424 -0.11096231 0.0074483226 -0.07856281
0000f0 e6 c8 67 bd 95 85 29 3e 8b 1a 7a be 9a f1 92 bd
       -0.056588076 0.16554864 -0.24424188 -0.07174988

module.0.module.0.weight f4 [64, 11]
000000 4d 2d 18 3b 96 12 2e 3e 79 4c 31 be dc 75 08 3d
       0.002322036 0.16999277 -0.17314328 0.033315524
000010 75 61 0b be ef 81 57 3d b3 d1 37 3e 87 ff 7c be
       -0.13611396 0.05261415 0.17951088 -0.24706851
000020 e1 08 b3 bc c9 1d 84 3e 8b 54 05 39 21 8d 80 3e
       -0.02185482 0.25803974 0.00012715363 0.25107673
000030 ed 25 e4 bd 97 04 85 be c3 b2 98 3e 2a 0c c6 3d
       -0.11140046 -0.25980064 0.29823884 0.09670289
000040 3d 0c 48 be e7 dc 9c be 7e f8 30 bd fb 21 53 3e
       -0.19535919 -0.30637285 -0.04320573 0.20618431
000050 4b 21 8e bc 33 23 3d 3e 66 2e 74 be 1c 62 89 bd
       -0.01734986 0.18470459 -0.23845825 -0.06708166
000060 73 d4 42 3e 89 a2 65 3e 84 60 95 3e 34 ef 25 3e
       0.19026355 0.22425283 0.29175198 0.1620453
000070 32 ec 85 3e a9 11 ed 3c a0 52 88 be ad 7b b7 bd
       0.26156765 0.028939085 -0.26625538 -0.08959136
000080 62 e3 74 3d 25 aa 80 3e 8d 1f 73 3e 1c d5 2f be
       0.05978716 0.2512981 0.23742504 -0.17171139
000090 e7 1e d8 bd 7f f5 4f 3c ed e4 92 be 76 f8 68 3e
       -0.10552769 0.012692808 -0.28690282 0.2275103
0000a0 71 3f 6a bd 61 8b a3 bd d3 f1 5f 3e 5a 26 7c be
       -0.05718941 -0.07985569 0.21869592 -0.24624005
0000b0 f1 89 2d be db bb 5a be 43 f5 68 be 13 7d 66 be
       -0.16947152 -0.21360724 -0.2274981 -0.2250865
0000c0 0b 82 e8 3d 1e fe 69 be e4 64 59 3d 31 7c 36 3e
       0.11352929 -0.22850844 0.053074732 0.17820813
0000d0 62 b6 10 be 0a 42 ea 3d 7d 8a 84 be 66 da 08 be
       -0.14132074 0.11438377 -0.25886908 -0.13364562
0000e0 2f 5a 7e bd 67 2f ad bd 91 06 68 be fa a7 18 3e
       -0.062097725 -0.08456307 -0.22658755 0.14907828
0000f0 a4 29 83 3e c4 3b 56 be 84 01 26 3e 64 b0 85 3e
       0.25617707 -0.20921236 0.16211516 0.26111138
000100 27 62 0b 3d ed 3d 8c bd 4e 78 7a be d5 69 3f 3e
       0.034029152 -0.06847749 -0.24459955 0.18692715
000110 f3 48 08 3e 04 ec 90 3e 34 ed 84 3d 0b 95 c8 bc
       0.13309078 0.28305066 0.064905554 -0.024485132
000120 9d 37 8c 3e 4b 46 95 be 80 a0 35 be da 8e 90 be
       0.2738618 -0.29155192 -0.17737007 -0.28233987
000130 1d ff 93 be 65 64 a8 bd 39 c8 84 be 55 4a 87 3e
       -0.28905573 -0.08222274 -0.25934008 0.26423898
000140 86 db 15 3e f6 88 d8 bd 39 4d 8e 3d c5 48 06 be
       0.14634523 -0.10572998 0.06948323 -0.13113697
000150 cc 35 87 3d 9e ab 52 be b7 5f 7c 3d ce f4 86 3e
       0.06602058 -0.2057328 0.06161472 0.26358646
000160 94 9e 87 3e 53 eb 19 bd e4 db 5f be 30 79 16 be
       0.26488173 -0.03757794 -0.21861225 -0.14694667
000170 38 bf 41 be f6 e2 82 3e f8 57 57 be fa 7c 37 3e
       -0.189206 0.25563782 -0.21029651 0.17918769
000180 fb 43 47 be ce d3 11 bd d4 c5 8c 3e cc 55 6c be
       -0.19459526 -0.035602383 0.2749468 -0.23079604
000190 17 be 22 be da 51 14 3d 60 df 93 be af 11 27 be
       -0.15892826 0.036210872 -0.2888136 -0.1631534
0001a0 e1 40 81 3e 7e 4b 14 3d 61 7a cb 3d c5 be 72 3e
       0.2524481 0.036204807 0.09935451 0.23705585
0001b0 a7 48 0d be e9 a5 56 3e f0 26 80 3e 4d 5e 21 be
       -0.13797246 0.20961727 0.25029707 -0.15758629
0001c0 e2 76 8a 3e 7b f3 85 be 43 bb ad bc 72 53 67 3e
       0.27043825 -0.26162323 -0.021207457 0.22590426
0001d0 0c 2c 4c be ab f2 33 3d ec 30 84 be a5 a9 25 3d
       -0.19938678 0.043932598 -0.25818574 0.04044499
0001e0 55 92 85 3e 1a 05 44 3e 13 89 8d 3d 6c 5c 33 be
       0.26088205 0.19142571 0.069109105 -0.17515725
0001f0 db 25 83 3e 1c 62 8a 3c ac ed 2c bd 13 29 80 3e
       0.2561482 0.016892485 -0.04221885 0.25031337
000200 3c f6 cf bd 46 ba ff 3d 85 a2 1b 3e 1a db 85 3e
       -0.10154387 0.12486701 0.15198715 0.26143724
000210 e2 ef fe 3c 76 02 01 3e 57 9b 8f be 3b 49 8d be
       0.031120244 0.12598595 -0.28048202 -0.27594933
000220 5f ac 02 3e 2e 52 0b bd 5f 67 19 3d b2 0d 75 3c
       0.12761067 -0.03401392 0.037452098 0.0149568785
000230 ec 27 d6 b9 cc 40 88 3e 83 fd dd 3d 44 d9 57 be
       -0.00040847005 0.26611936 0.10839369 -0.21078974
000240 7a 57 00 3d d6 bb 92 be 19 00 43 3e 19 70 47 3e
       0.031333424 -0.28658932 0.19043006 0.19476356
000250 d0 9c 3f 3e 6c 55 2b 3e c7 3f 86 3c 05 04 06 3e
       0.18712163 0.16731805 0.016387833 0.13087471
000260 c3 b3 7c 38 15 58 78 be 2a 39 f9 3c 74 b2 dd bd
       6.0248898e-05 -0.2425235 0.030422766 -0.10825053
000270 9e fc 03 3e d4 21 3c 3e 58 f6 bb bd b9 1c 29 be
       0.12889335 0.1837228 -0.09177846 -0.16514863
000280 c7 58 be 3d 9f 4b 1b 3e 5c b2 8f be de 5c 8d be
       0.09294277 0.15165566 -0.28065765 -0.27609915
000290 8e c8 e3 3d a0 0f 27 be 28 67 90 3e d4 a7 ec 3d
       0.11122237 -0.16314554 0.28203702 0.11555448
0002a0 05 2b 9d 3d 2e 81 95 bd f8 a1 2d bd 46 8c 9e 3e
       0.07674221 -0.0730003 -0.042390794 0.30966395
0002b0 37 a5 67 3d 62 92 88 be 14 2d ec bd d7 f0 73 be
       0.056554046 -0.2667418 -0.115320355 -0.23822342
0002c0 eb d7 87 bc 9e 0a c4 3d 98 d7 05 bd 91 30 8a 3e
       -0.01658245 0.095723376 -0.03267631 0.26990178
0002d0 c8 44 03 be 45 af ee bd 87 c7 56 be b1 8e 33 be
       -0.12819207 -0.11654524 -0.20974551 -0.17534901
0002e0 e3 07 8d be d6 27 a6 3d d4 96 5d 3e b4 a0 49 bd
       -0.2754508 0.08113067 0.21639568 -0.049225524
0002f0 bd f0 0c be 7e 14 84 bc bd ea 72 be 25 cf 80 bc
       -0.1376371 -0.016123053 -0.23722358 -0.015723774
000300 0b dd 59 be 6d cd 37 be c8 64 e7 3c 6b d4 4b 3d
       -0.21275727 -0.17949457 0.028246298 0.049763124
000310 f7 30 51 3e ff 0e 81 be 0f 15 00 bd 08 ee 65 3e
       0.20428835 -0.25206754 -0.031270083 0.22454083
000320 bd ad 7f ba 13 43 75 be 22 75 cf bd aa e0 80 3e
       -0.0009753367 -0.23951368 -0.10129763 0.25171405
000330 07 2f 91 be 78 74 90 be d7 2f 50 3e b3 4a dc bd
       -0.28356192 -0.2821386 0.2033075 -0.10756435
000340 97 92 23 be ba cf 72 bd a8 86 80 3c 76 45 4b 3e
       -0.15973888 -0.059280135 0.01568921 0.19850716
000350 a0 0a 20 be 49 90 c5 3d 93 0b 8f 3e b3 88 05 be
       -0.15629053 0.09646661 0.27938518 -0.13040428
000360 e1 1b 78 3d 96 56 3e 3e 7e bd 8d 3e c1 65 03 3e
       0.060573462 0.18587717 0.27683634 0.12831785
000370 fb 83 cf bd 66 da 83 bd e5 51 19 be 2e ac 04 be
       -0.10132595 -0.064381406 -0.14972647 -0.12956306
000380 7d 38 2d be 5e 2e 72 3e 3f 88 82 3e 66 3b 88 be
       -0.1691608 0.236505 0.25494573 -0.26607817
000390 a6 ff 06 be 28 69 2b be 2a 8f 0d 3d 41 b3 60 be
       -0.1318346 -0.16739333 0.03456036 -0.2194338
0003a0 e0 53 93 be d1 9b f9 3c ed f5 27 be ee 8c ff 3d
       -0.2877493 0.030469807 -0.16402407 0.12478052
0003b0 61 bd 9a 3e ce 17 8e 3e e2 78 3e be fe ec 46 be
       0.3022261 0.27752537 -0.186008 -0.19426343
0003c0 df 31 13 be 53 34 82 be ff 55 b1 bd d2 b8 5b be
       -0.14374493 -0.25430545 -0.086589806 -0.21457222
0003d0 58 a9 84 bd d1 ff c1 bb 1e 68 4e 3e 8e 7c ae bc
       -0.06477612 -0.0059203883 0.20156905 -0.021299627
0003e0 51 9d 8f be 81 a7 7e 3e 73 df c2 3c e7 5e 78 be
       -0.2804971 0.24868585 0.02378819 -0.24254952
0003f0 fa f6 25 3d 21 ed 1a 3d 13 ac 97 3e 7d db 80 be
       0.04051874 0.0378238 0.2962347 -0.25167456

module.0.module.2.bias f4 [64]
000000 8d c2 a7 3d d2 71 eb bd c8 35 c2 3d f8 4b d8 bd
       0.081914045 -0.11496319 0.09482914 -0.10561365
000010 b9 2e a1 3c 3a 70 e2 3a 1d 79 d1 3d 77 32 52 bd
       0.0196756 0.0017275878 0.10228179 -0.05131766
000020 70 bd 03 bd 9f d8 b8 3d 38 f5 cd bd e8 b5 92 bd
       -0.032163084 0.09025692 -0.100565374 -0.07163602
000030 da 18 74 3c f3 34 78 3c 05 2f d1 bd 18 40 33 bd
       0.014898503 0.015149343 -0.102140464 -0.043762296
000040 e6 18 72 3d 9e 5b e8 3d 89 5a 99 bd d3 3e ad bd
       0.059105776 0.113455996 -0.07487971 -0.084592484
000050 69 84 02 3e 47 5e 44 bd f8 2e 61 3d 5c 89 4b bd
       0.12745823 -0.047941472 0.054976434 -0.049691543
000060 42 d0 6f 3d c3 9b bc bd fb 0e 3d bc 99 df ef 3d
       0.05854822 -0.09209397 -0.011539216 0.1171257
000070 30 49 ae 3d e6 51 32 bd dc 4f b6 3d cc fe 7b bd
       0.08510053 -0.043535136 0.08901951 -0.06152229
000080 d3 4d 1e bd ec d9 e2 3d 90 55 86 3d f6 73 e3 bc
       -0.038648438 0.110767215 0.065592885 -0.027765255
000090 00 2a e3 bd 37 06 1c 3d fb 6b ee bc 2e 0e 80 bd
       -0.11091995 0.038091864 -0.029104223 -0.062527046
0000a0 a3 b1 ac bd f9 47 b5 3d 46 57 40 3d 47 8f e0 bd
       -0.08432319 0.08851618 0.04695823 -0.10964828
0000b0 26 21 b7 bd bc b9 78 3d de 21 81 bd 8b 77 9f 3d
       -0.089418694 0.060724005 -0.06305288 0.07786473
0000c0 85 45 1a 39 0d e3 a8 3c 43 4c e1 bd 9b 56 f5 3b
       0.00014712483 0.020616079 -0.11000874 0.007487131
0000d0 98 92 e4 3d 5a ec a8 bd 09 9b 48 bd 8e 5b b0 bc
       0.11160773 -0.082482055 -0.048975978 -0.021528032
0000e0 48 13 98 bd 1f a0 c0 3d 31 a0 e4 3d 08 b2 7c 3d
       -0.074255526 0.09405541 0.111633666 0.06169322
0000f0 02 26 c4 bb 2f b1 17 bd 43 8b ac 3d 6e 80 0b 3c
       -0.005985976 -0.03703421 0.084249996 0.008514507

module.0.module.2.weight f4 [64, 64]
000000 b0 20 55 bd 0b 00 a0 bd 7f ac 6d bc 66 a7 c8 bd
       -0.052033126 -0.07812508 -0.014506458 -0.09797554
000010 37 8a 4f 3d 3e c0 51 3c 31 3d ba 3d f2 40 29 bd
       0.05066892 0.012802182 0.090937026 -0.041321702
000020 19 03 cb 39 b9 55 b9 bd bf b9 a3 bd cd ae a1 bd
       0.00038721485 -0.090495534 -0.07994413 -0.07894669
000030 11 e7 24 3d 21 30 25 3d dc 45 30 39 31 02 bf bd
       0.040259425 0.040329102 0.00016810693 -0.0932659
000040 97 3d ab bd b7 43 8e bd c3 72 d1 3d 27 c2 da bd
       -0.08361357 -0.06946509 0.10226967 -0.10681563
000050 78 1c 94 bd 74 b0 92 bd 6a 5a ce 3d f9 39 e6 bd
       -0.072319925 -0.07162562 0.10075839 -0.11241526
000060 84 11 32 bc b3 f3 a8 bd e9 9a 45 3d 54 db 7e b9
       -0.010868434 -0.08249607 0.048243437 -0.00024305034
000070 69 13 3a 3d 3d 9f 4e bc 8e 57 ba bb 6a 11 bc bd
       0.045428667 -0.012611208 -0.005686707 -0.09183009
000080 33 a6 57 bd 63 51 8a 3d 02 e2 bb 3d ef 6b 1a 3c
       -0.052648734 0.067538045 0.09173967 0.009425147
000090 84 d8 c8 bb 0e b5 83 bd 1d a1 9d bc 83 9d de bc
       -0.0061293263 -0.06431018 -0.019241864 -0.027174717
0000a0 98 db cb bb e5 64 1f bc 6d 65 33 3d c7 63 af 3c
       -0.006221246 -0.009728645 0.0437979 0.021409882
0000b0 dc 4f 2a 3b f1 70 c1 bd 6f e0 86 3d 2b fe 6b 3d
       0.0025987541 -0.0944537 0.06585776 0.05761544
0000c0 56 4e a0 bd 2d 2c 76 3d 5e ed 06 bd ea 82 86 bd
       -0.078274414 0.060100723 -0.032941215 -0.065679386
0000d0 18 55 3c bd 67 1d e9 3d f6 65 c3 3d 2c 1e c6 bd
       -0.04597959 0.11382561 0.09540932 -0.096737236
0000e0 d7 af e0 bc 14 ec ee b9 d1 bc 0a 3c 1a 84 bf bd
       -0.027427597 -0.0004557079 0.008467869 -0.09351368
0000f0 eb 6f ee 3d 30 e2 90 bd b7 b7 cf 3d 2e ce d3 bd
       0.116424404 -0.07074392 0.10142463 -0.1034206
000100 5e 64 ee 3d 4c 02 d2 3d 29 47 64 bb ce 43 ef bd
       0.11640237 0.10254344 -0.0034832454 -0.116828546
000110 56 19 94 bd 05 22 68 bd 56 14 c3 bd a4 0d c8 3d
       -0.07231395 -0.05667307 -0.09525363 0.09768227
000120 59 41 64 3d 13 8a c8 3d dd 1b 68 3d 38 e3 bb 3d
       0.055726383 0.097919606 0.056667197 0.09174198
000130 cf 85 4c bd f8 82 66 3d f4 7c 8e 3d 1c a3 97 bd
       -0.049932297 0.056277245 0.06957427 -0.074041575
000140 1d 5a 71 3d 9f 01 1d bd 61 aa 8f 3d 4a 2b f4 3c
       0.05892383 -0.038331624 0.07014919 0.029805798
000150 f9 7f bb 3d 61 27 5a bd c7 98 4b 3d 34 c6 57 bc
       0.09155268 -0.05326021 0.049706247 -0.013169814
000160 9f bf bd 3d 79 8d 99 bb 83 4e e6 3c 3c 85 c3 bc
       0.092650644 -0.0046860543 0.02811361 -0.023867242
000170 46 14 40 bd 4f 91 41 3d a6 b6 b5 3c 77 d5 80 3c
       -0.046894334 0.047257718 0.02218182 0.015726788
000180 66 58 e3 3d 55 e2 30 bd 68 e9 ad 3d 6f 95 e9 3d
       0.11100845 -0.043184597 0.08491784 0.11405455
000190 3b 90 a5 bc 70 77 cc 3d e6 20 dd bc e0 d1 c8 bd
       -0.020210376 0.099837184 -0.026993226 -0.098056555
0001a0 42 2a c7 3c 8c 60 ce bd 37 0a 66 3d 7e 8e f9 bd
       0.024312142 -0.100770086 0.056162085 -0.12185381
0001b0 75 2f d1 3d f8 f3 77 39 a3 f2 d5 bc 43 99 48 bd
       0.1021413 0.00023646641 -0.026116675 -0.048974287
0001c0 72 19 3b 3d 5a 39 b3 bd 35 79 80 3d d5 a1 1d bd
       0.045678563 -0.08751173 0.062731184 -0.038484413
0001d0 b5 bd d5 bd 03 a8 36 3b 1c 6b 71 bb f9 13 96 3b
       -0.10436574 0.002787114 -0.0036837524 0.0045800176
0001e0 26 20 b2 bd b8 7c 98 bd e1 29 39 b8 7d 35 e5 bd
       -0.08697538 -0.07445663 -4.414644e-05 -0.11191843
0001f0 ee 0b 83 bd 26 34 c2 bd f1 e3 20 3b 9e e1 7e 3c
       -0.0639876 -0.09482603 0.0024549926 0.015556721
000200 3a 43 ca bd 3e 26 0b bb c2 ad ac 3d 32 b3 91 3d
       -0.09876104 -0.002123251 0.08431579 0.07114257
000210 72 e4 d0 bd ce 4b d4 3d dd e6 d1 3d 02 71 5a 3d
       -0.101998225 0.10366021 0.10249112 0.05333043
000220 8f 47 c5 bd 94 76 be bc c9 49 ef bb 81 66 24 bd
       -0.09632789 -0.023249902 -0.007302497 -0.040136818
000230 a5 6f 06 be b4 7a bb 3d fb 1d 4a bd 31 94 e0 3d
       -0.13128527 0.09154263 -0.049344998 0.10965765
000240 fb 2a d9 3d b8 f5 95 bd 42 44 a9 3c f9 1b 90 bd
       0.10603901 -0.07322258 0.02066243 -0.07036585
000250 5c 9f a2 3b fc 28 9a 3d 4d 60 b9 3d df 0e cf bd
       0.004962845 0.075273484 0.09051571 -0.10110258
000260 f0 a2 3a 3b 20 cc bc bd dc c2 b5 bc c7 32 6d bd
       0.0028478466 -0.09218621 -0.022187643 -0.057909753
000270 7a 61 ec 3d 2b b5 8a 3d 06 02 10 3d 1b 06 92 3d
       0.1154203 0.06772836 0.03515818 0.07130071
000280 39 17 37 bd ad 33 eb bd 69 e5 89 bd a8 fd a8 3c
       -0.04469988 -0.11484466 -0.0673321 0.020628765
000290 d9 e2 9a bd 55 41 e6 bd fc cb d4 bd 8e ee 0c bd
       -0.07562799 -0.1124293 -0.103904694 -0.03440719
0002a0 5c b2 7a bd e2 bd 86 bd 94 d2 99 3d e1 c1 b0 3d
       -0.061205253 -0.06579186 0.07510868 0.086307295
0002b0 62 e4 c9 bd 73 4f ff bd 0e 8a b1 bd 3b 30 ee bd
       -0.09858014 -0.124663256 -0.0866891 -0.11630293
0002c0 2a 0b 46 bb 07 d3 c9 3d 3f bd 94 bd 22 db 93 bd
       -0.0030219057 0.098547034 -0.07262658 -0.07219531
0002d0 85 48 ab bd 77 af 57 3d d1 4e b3 bd 0a d2 d5 3d
       -0.083634414 0.05265757 -0.087552674 0.104404524
0002e0 c0 ff a7 3c 22 79 9b 3d 50 9c 49 bd 45 1f a2 bd
       0.020507693 0.075914636 -0.049221337 -0.079161204
0002f0 2f a5 4d bc f2 fc ad 3d 9d 77 ad 3c 00 ba dd bd
       -0.01255159 0.08495511 0.0211752 -0.10826492
000300 78 53 a9 bc 62 e3 7b 3b 12 c6 e3 3b a2 70 85 bc
       -0.020669684 0.0038435091 0.006951102 -0.01628906
000310 1e 59 53 3d 0a e4 da bd 54 8b 8c bd 74 e8 c7 bc
       0.05159866 -0.10688026 -0.06862512 -0.024402834
000320 f2 40 9d bd fa 9d 88 bb a2 0b 77 3d 33 8a 02 bd
       -0.07678403 -0.004169223 0.06031383 -0.03187008
000330 da 35 c5 bc 58 bd 4b 3b 17 b2 b3 bd 75 ed 8c bb
       -0.02407353 0.00310882 -0.08774202 -0.004300768
000340 6f 2e a1 3d 02 8c db bd db f5 4e bd 0c 43 80 bd
       0.07870185 -0.10720064 -0.050527435 -0.06262788
000350 8d 78 c9 3d 16 62 a4 bd d0 1d de 3d 04 8c 01 bc
       0.09837446 -0.08026521 0.1084553 -0.0079069175
000360 0b 4d 48 3d b0 01 cb bd df 70 6a bd d2 ad 3c 3a
       0.0489016 -0.09912431 -0.05723655 0.0007197532
000370 a6 7b 32 3d 95 d5 53 3d be 5d 10 3d 7c 6d dc 3c
       0.04357495 0.05171736 0.03524565 0.026907675
000380 7f 23 44 bd c0 fb db bd e8 b5 ac bd f3 8e 8d b9
       -0.047885414 -0.10741377 -0.08433133 -0.0002700012
000390 10 17 e5 3d fd 70 c2 3d f3 ea f9 bb 0c 65 82 bd
       0.111860394 0.09494207 -0.007626885 -0.063669294
0003a0 79 fe 40 bd 35 ce 8a bc 75 3a e1 3d d8 29 31 bd
       -0.047117684 -0.01694403 0.10997478 -0.043252796
0003b0 db ed a7 bd 45 da 95 bd 9c ad 0e 3c 6a 2f 9c 3d
       -0.08199664 -0.07317022 0.008708384 0.07626231
0003c0 d4 d8 b4 3d 55 0f 86 3d 22 21 de 3d 3c e4 85 bd
       0.08830419 0.06545893 0.10846163 -0.06537673
0003d0 3c c9 61 bc 94 1e 2f bd 2a 29 a4 bc f8 1b 0b 3c
       -0.013780888 -0.04275377 -0.02003916 0.008490555
0003e0 74 d8 41 bd 6b 0c 99 3d 63 05 86 bc 49 a7 88 3d
       -0.047325566 0.07473072 -0.01635999 0.06672532
0003f0 2d cf d1 3d ba 6e ab bc cf fd b0 b9 01 04 6f bd
       0.10244594 -0.020926822 -0.00033758438 -0.058353428

module.0.module.4.bias f4 [256]
000000 df d6 58 bd e3 c9 9d bb ba ec 51 3d af a6 d0 3d
       -0.052939292 -0.0048153265 0.05125115 0.10188042
000010 d5 ff 98 bc 70 33 4a bd ca 99 45 3d a5 d8 23 3c
       -0.018676678 -0.04936546 0.048242368 0.010000383
000020 99 d7 48 bd 9e c5 3f 3d 25 87 c4 bd d0 dc 0c 3d
       -0.049033735 0.04681932 -0.09596089 0.03439027
000030 2f e0 db bd c4 51 75 bd 60 3a 20 3d 34 b1 0c bb
       -0.10736119 -0.05989243 0.03911817 -0.0021467926
000040 13 83 bc 3d ab 02 49 3c 8b b6 b7 3d 8f 93 cd 3c
       0.09204688 0.0122687025 0.08970364 0.025094775
000050 6d 9d f3 3d 70 6a a0 3d 54 30 5b bc 99 4a bc 3d
       0.11895261 0.07832801 -0.013378222 0.09193916
000060 09 6d ec 3d 80 35 b6 bc 13 ea fe 3d 63 bf a1 3c
       0.11544234 -0.022242308 0.1244699 0.01974458
000070 55 2b ad 3c 5e d8 d4 3d 98 2a 49 3d 9b 5b ad bd
       0.021138826 0.10392831 0.049112886 -0.08464738
000080 44 20 27 3d bf 7f 4a bd ad f2 70 bc 43 26 c1 bd
       0.040802255 -0.049438234 -0.014706296 -0.09431126
000090 11 90 18 3c 63 3a dc bc c6 a0 09 3d 9c 5e f9 bc
       0.009311692 -0.02688331 0.03360059 -0.030440621
0000a0 a8 c0 02 3e 72 19 0e 3c 7d 7a 88 3d 5f 65 f3 3d
       0.12768805 0.008673059 0.06663988 0.118845694
0000b0 61 93 be bd dd e7 9b bc 9d 3a f8 3d 67 b9 d8 3d
       -0.09305454 -0.01903146 0.121205546 0.10582238
0000c0 06 82 1f bd 90 9c e7 3c 85 72 5d bc 10 00 c0 3d
       -0.03894236 0.028272897 -0.013516073 0.09375012
0000d0 fc da ee 3d e3 6b 8a bc bb 76 c9 3d d4 e5 4c 3d
       0.11662862 -0.016897148 0.09837099 0.05002387
0000e0 5b b3 99 3d bb fa 16 b9 a9 3f ff 3d e6 a9 8d bd
       0.075049125 -0.00014398519 0.12463314 -0.06917171
0000f0 79 14 d3 bd 52 27 ed bb 68 6f 59 3d cf c3 fa 3c
       -0.10306639 -0.0072373534 0.05308476 0.030610947
000100 ee 72 e8 3d 2f 7d 66 bd 91 7f b3 3d bb 5d ff 3d
       0.11350046 -0.056271728 0.08764566 0.124690495
000110 5f b8 ac bd e5 cf 65 3d 99 2b 7e 3c 2d a2 d4 bc
       -0.084336035 0.056106467 0.015513324 -0.025956238
000120 73 27 36 3c a7 16 3d 3d ea aa 18 3d bb 77 05 3e
       0.011117804 0.04616418 0.03727237 0.13033955
000130 ff 5b c2 bc c5 dc c8 bd 43 06 07 3e 4b b1 12 3d
       -0.023725508 -0.098077334 0.13185982 0.03581361
000140 53 d5 8f 3d 7e ed 94 3d be 13 c4 3d 82 fa 53 bd
       0.0702311 0.072718605 0.09574078 -0.051752575
000150 e9 6a 9d 3d 5b f5 07 bb 58 2f 8f 3d c6 4a 60 bd
       0.07686407 -0.0020745608 0.06991452 -0.05475881
000160 67 16 58 bd 91 3a 9e 3d d3 77 f0 3d 50 d6 59 bd
       -0.05275574 0.077260144 0.11741605 -0.0531829
000170 fa 1e 5c 3b c2 a2 c8 bd c5 19 0f 3d e8 fd 5c 3d
       0.00335878 -0.097966686 0.034936685 0.05395308
000180 bb a1 6d 3c b6 0d db bd fa 05 e4 bd a9 48 b5 bb
       0.014503892 -0.106959745 -0.111339524 -0.0055323434
000190 7e c2 d8 bd d9 57 27 3c 6f 82 97 bd ce 57 82 3d
       -0.105839714 0.010213816 -0.07397925 0.06364404
0001a0 ba 3a 2e 3d af 5c 94 bd 40 e0 76 bd fb b9 25 ba
       0.042536475 -0.072442405 -0.060272455 -0.0006321964
0001b0 6b 71 51 bd 59 ee 34 bd f0 ee d2 3d 90 1d 3d 3d
       -0.051133554 -0.04417262 0.1029948 0.04617077
0001c0 fd ab 8b bd 60 2f 14 bc 94 b6 c7 3d 48 ca b0 3d
       -0.068199135 -0.009044498 0.09751621 0.08632332
0001d0 1c 9e b3 bc 07 2e ce bd 90 4f 87 bd 1c 05 50 3d
       -0.021925978 -0.10067373 -0.06606972 0.050786123
0001e0 8f b3 ef b9 69 78 0f bc 3e fb 81 3d 60 7e 9d 3d
       -0.00045719414 -0.008756735 0.06346749 0.0769012
0001f0 61 b2 2e bd d8 41 3c bd 76 e2 72 bd 46 d3 a6 bd
       -0.042650584 -0.04596123 -0.059298 -0.08145766
000200 ac f2 b3 3d 6f 90 ea 3d b0 41 a3 bc 73 f8 e3 3d
       0.0878652 0.1145333 -0.019928783 0.11131372
000210 0c 98 b9 3c b5 3a a2 3d 87 bb 2a 3d 9e 54 d7 bd
       0.02265551 0.07921354 0.041682746 -0.10514186
000220 06 42 47 3d 06 4a 9c bd 92 02 6f bd c3 d1 95 3d
       0.04864695 -0.07631306 -0.05835206 0.073153995
000230 16 e0 17 3d e3 42 b6 bd 48 ca 97 bd 9f d5 cb 3c
       0.03707894 -0.088994764 -0.07411629 0.024882136
000240 9b 0c da 3c 5d d6 18 3d f9 b6 e5 bd e7 b1 e1 3d
       0.026617339 0.037313808 -0.1121654 0.1102026
000250 07 b0 b6 3d 54 ca 4e b7 06 15 90 3c a1 38 3e 3d
       0.08920293 -1.2325665e-05 0.01758815 0.046440724
000260 6b 07 a0 3c 99 ed bd 3d 0a 56 97 bd 31 16 b9 bd
       0.019534787 0.09273834 -0.073894575 -0.09037436
000270 6c d4 be 3c e9 be de bd 9d 4c ad 3d 4d c0 45 bd
       0.02329465 -0.10876257 0.084618784 -0.048279095
000280 3c 72 ee 3d 6f 9a 77 bd 6a a4 6d bd f8 1a 3c bd
       0.11642882 -0.060450014 -0.058018126 -0.045924157
000290 00 4b 78 3c 6c d7 8a bc b1 6e c8 bd 58 5b cc bb
       0.0151546 -0.016948424 -0.09786738 -0.006236475
0002a0 61 82 be 3d 4d 2b c2 3d 17 04 c3 bd 49 f1 6e 3d
       0.093022116 0.09480915 -0.095222645 0.058335576
0002b0 33 a7 70 3c 87 54 9d 3d 45 4d d4 bd 04 48 d5 bc
       0.014688301 0.07682138 -0.103663005 -0.026035316
0002c0 6f 78 5f 3d 10 aa c4 bd 4e ed f2 bc f2 3d cd bd
       0.054558214 -0.09602749 -0.029654171 -0.10021581
0002d0 16 a8 a4 bd 81 4d 3a 3c d8 46 4f bd ae eb b8 bc
       -0.08039872 0.011371017 -0.05060467 -0.022573318
0002e0 5d 4f e5 3d 72 00 e9 3c 97 5c 76 bd ac 20 e8 bd
       0.11196778 0.028442595 -0.060146894 -0.11334357
0002f0 ec 0c eb bc 58 cf b4 3d b3 ef 6d 3d 0c 32 2b bd
       -0.028692685 0.0882861 0.058089923 -0.041795775
000300 f2 ad c2 bd 72 a5 cc bd 70 9b c7 bd 7e 7f 48 bd
       -0.09505834 -0.09992494 -0.09746444 -0.04894971
000310 ca c8 da 3d 3f 54 44 3d 29 a8 b3 bd 33 97 2a ba
       0.10682829 0.047931906 -0.087723084 -0.0006507516
000320 8b 88 61 3d 34 90 23 bd d5 fe aa bd 79 90 20 3d
       0.05506186 -0.039932445 -0.083493866 0.03920028
000330 15 3b 6a 3d 72 f3 9c bd 18 68 24 bc a4 be da bc
       0.05718525 -0.07663621 -0.0100345835 -0.026702233
000340 51 7a 49 3d 4f 0d 8a 3c 54 67 3e bd f5 1f e7 3d
       0.049188916 0.01685205 -0.04648526 0.11285392
000350 a7 29 af 3d 09 90 fe bd 1f ed a5 bd 10 aa a4 bd
       0.085528664 -0.12429816 -0.08101868 -0.08040249
000360 2f 4a 94 bd 9b b6 85 bd ff ee e9 bc 8c 51 d1 3b
       -0.07240712 -0.0652897 -0.028556345 0.006387895
000370 4e ec a6 3c 85 0f ac bc 3e bf 8b 3d 68 65 28 3d
       0.02037635 -0.021003494 0.06823586 0.041112334
000380 f9 65 77 bb a1 06 fd 3d e2 65 e2 3c ab ab 2f bc
       -0.003774999 0.1235478 0.027636472 -0.010722081
000390 d6 83 70 3d 3b d2 78 3c ee 26 49 bd d1 32 d8 3d
       0.05871948 0.015186842 -0.049109392 0.105565675
0003a0 b9 ad 01 3d c3 5a 90 bd 07 00 a1 bd 73 4c af bd
       0.031659815 -0.070485614 -0.07861333 -0.085595034
0003b0 5f a6 88 3d ce 32 02 be 44 ae 35 3d d3 16 40 3c
       0.06672358 -0.12714693 0.044355646 0.011724192
0003c0 19 07 ca bd 93 96 d7 bd bb f0 87 b8 a2 80 c6 3d
       -0.09864635 -0.10526767 -6.482141e-05 0.096925035
0003d0 a2 89 86 bd 71 5c f0 3d 71 ec 45 bd 2f da 41 3d
       -0.0656922 0.11736382 -0.04832119 0.047327217
0003e0 bf 1d 92 bd 0b 7c 4d bd f9 21 ca 3c 72 25 b3 bc
       -0.0713458 -0.050167125 0.024674403 -0.021868441
0003f0 c5 b5 8f 3d 4e b0 da bd bb d0 cd bd 0e b2 fd bc
       0.07017092 -0.10678159 -0.10049578 -0.030968692

module.0.module.4.weight f4 [256, 64]
000000 15 22 38 3d 23 22 3e bc 35 0c 4a bb 2e 90 55 bd
       0.04495438 -0.0116048185 -0.003083003 -0.052139454
000010 40 f5 3b bc f5 36 a8 3d b2 79 81 3d 7a 20 34 bd
       -0.011472046 0.08213607 0.0632204 -0.043976285
000020 a7 d9 85 bd ae 76 b4 bd 7c 23 e1 bd 54 eb 86 3d
       -0.065356545 -0.08811699 -0.10993096 0.06587854
000030 e7 ab 82 bd a8 bc 8d bc 45 fd c2 3d 4c 82 7e bd
       -0.06380444 -0.017301872 0.095209636 -0.06213598
000040 c2 a3 8f 3d b2 74 81 bd b7 11 27 bc 29 51 e5 3d
       0.07013656 -0.06321086 -0.010197095 0.11197121
000050 e0 d8 ad 3d 23 f9 e5 bd d0 8c ae bd ad 21 8f 3d
       0.08488631 -0.1122916 -0.085229516 0.06988845
000060 77 64 b6 bc 2e 59 a6 bd 66 13 b9 bd 09 aa b1 bd
       -0.022264702 -0.081224784 -0.09036903 -0.0867501
000070 fa 93 75 bd 7b 5e b7 3d 03 32 7a bb ad a8 b7 bc
       -0.059955575 0.089535676 -0.0038176782 -0.022419298
000080 e2 e1 e3 b8 70 31 7c bd 92 56 0c bd af 78 bb bd
       -0.000108662774 -0.061570585 -0.034262247 -0.09153878
000090 ac 0d 37 bc ba 19 cf 3d 77 a1 56 bd fc 99 1f bd
       -0.011172693 0.10112329 -0.05240008 -0.03896521
0000a0 45 19 b3 bd f9 ba ab 3c dc 03 35 3c 91 09 a6 bd
       -0.08745054 0.020963179 0.011048283 -0.081072934
0000b0 77 b6 b3 3d 97 33 8d bd 7f a9 ef 3c 6e 6c b1 3d
       0.08775037 -0.068946056 0.029255627 0.086632594
0000c0 e4 6e bf bd 0d 93 44 3a 2d be 65 bd 57 0f 44 bd
       -0.093473226 0.0007498719 -0.05608957 -0.04786619
0000d0 80 48 ca bd 0e 4a 19 bd f6 d7 b0 3d 72 42 d5 3d
       -0.098771095 -0.03742414 0.08634941 0.10413064
0000e0 2b 49 26 3d 39 4c 5b 3c 30 ff 2d 3d 72 f2 8c 39
       0.040597122 0.013384872 0.042479694 0.00026883517
0000f0 50 0f da bc 26 eb ab bd 20 8f 31 39 23 ef d4 bd
       -0.02661863 -0.083944604 0.00016933354 -0.10397174
000100 12 1b 4d bd af ce 95 3d ca 1c 51 3c 4a 6a b8 bd
       -0.050074644 0.073148124 0.0127632115 -0.09004648
000110 a5 fb 06 3c 8d 3d c8 3d 77 da 24 3d 80 a1 8a 3d
       0.008238708 0.09777365 0.040247407 0.06769085
000120 1d 7b 26 3c 4c 1b 75 bc 3e b4 46 ba 5f 50 1e 3d
       0.010161188 -0.014960121 -0.0007579959 0.038650867
000130 77 cf cf 3c 88 43 97 bc 6d 11 9b 3d ba 8e db bd
       0.025367482 -0.018464819 0.07571683 -0.10720582
000140 e8 00 a3 bd 8a 1f d8 3d f9 fc 5d 3d bb 5d c9 3c
       -0.07959157 0.105528906 0.05419633 0.024580827
000150 a2 cd b1 bc a8 fb 4e 3d a1 45 da bd c3 4a 75 bd
       -0.021704499 0.050532967 -0.10657812 -0.05988575
000160 b6 8e c1 bc 3c 95 a6 3d b1 50 79 3c 7b e6 65 3c
       -0.02362762 0.08133933 0.015216992 0.014032002
000170 9c 79 02 3e c9 d9 36 bd 7f a1 71 bd c2 e3 15 3d
       0.12741703 -0.04464129 -0.058991905 0.03659416
000180 d2 2c e4 bd 93 53 8b 3d 53 99 8a 3d d4 f4 99 bd
       -0.11141361 0.0680305 0.067675255 -0.075174004
000190 86 9b d5 bd 1e f1 dc 3c cf b6 b3 bd 4c 55 86 bd
       -0.10430054 0.026970442 -0.08775102 -0.06559238
0001a0 c7 b8 31 bd d9 b4 d5 bc 4a cf 47 3d 9b 20 8e bc
       -0.043389108 -0.026087211 0.04878167 -0.017349532
0001b0 93 f2 c7 3d 70 d3 26 bd 10 71 9c 3d 99 b1 5a bd
       0.09763064 -0.040728986 0.076387525 -0.053392027
0001c0 e2 45 f0 b8 5d 5c 92 3d f4 01 6e 3d 5a 8c 81 3d
       -0.000114571085 0.07146523 0.05810733 0.06325598
0001d0 44 53 05 3e a6 fd 53 3b 50 78 dc bd 70 47 85 b9
       0.13020045 0.0032347231 -0.10765135 -0.00025420962
0001e0 de 76 e5 bd 67 85 f7 3d a7 ff fd 3d 72 35 d2 bc
       -0.11204313 0.12085991 0.124022774 -0.02566025
0001f0 97 ce cd 3d 5e 57 8e 3d 38 2e a0 bc e6 b8 b5 3d
       0.100491695 0.06950258 -0.019553289 0.08873157
000200 d3 7e 72 bc cf b4 e1 3c 87 d9 02 bd 15 79 9c bc
       -0.014800745 0.027552037 -0.03194573 -0.019100705
000210 c1 9d ca bc 41 57 95 bd 45 c5 cf 3d 91 e1 d4 bd
       -0.024733426 -0.07292033 0.10145048 -0.10394586
000220 ec 3b ba bd 68 09 71 3c e0 d3 d9 3d 53 78 a5 bc
       -0.090934604 0.014711715 0.10636115 -0.020198977
000230 99 94 13 bd e4 54 20 3d 69 0f e7 bd 32 f2 13 3c
       -0.036030386 0.039143458 -0.11282236 0.009029912
000240 b4 75 c9 3c 66 70 1e bd bc cc 0b bd c4 08 93 bd
       0.024592258 -0.03868141 -0.034130797 -0.07179406
000250 37 d1 95 bc 37 30 b5 3b 74 eb c0 bd 42 20 db bd
       -0.018288238 0.0055294293 -0.09419909 -0.10699512
000260 c1 a6 8b bc 37 5f e3 3d 76 8c 94 bd 9f 1d b9 bc
       -0.017047288 0.11102145 -0.07253353 -0.022597132
000270 ad 5d ca bd 0e e0 91 3d 8b 12 bc 3d cc 3a cd bd
       -0.098811485 0.07122813 0.09183224 -0.1002098
000280 20 23 ac 3d 2e 00 e1 3d 56 1b 47 3d d2 4e 0b bd
       0.08405137 0.109863624 0.048610054 -0.034010716
000290 08 ca 65 3d 79 c1 c9 3d 4a 34 e0 bd 9e 39 9a bd
       0.056100875 0.09851355 -0.10947473 -0.07530521
0002a0 a2 69 fa bb 85 07 df 3c 97 a5 45 bc b3 61 8c bd
       -0.007641987 0.027225265 -0.0120634055 -0.06854572
0002b0 a4 bf cc 3c b6 58 db 3d 4d f0 9c 3d 11 39 78 3d
       0.024993725 0.1071028 0.07663021 0.060601298
0002c0 2c 4d b7 bd 44 d9 b6 3d 99 a1 a5 bd d6 d1 be bd
       -0.08950266 0.08928159 -0.08087463 -0.09317367
0002d0 02 49 65 3d 8d e0 83 bd 9b 67 11 3d 58 cd 2c 3c
       0.05597783 -0.06439314 0.035499196 0.010547005
0002e0 68 4a 02 3e 3e 5e e7 3d a3 5e c6 3d 0a d4 5f bd
       0.12723696 0.11297272 0.09686019 -0.054645576
0002f0 54 20 8d 3d a2 d1 84 bc 1c 66 db 3d 5f ef 99 bd
       0.06890932 -0.016213242 0.10712835 -0.075163595
000300 45 dd ca bd 7c 63 2e 3d ef ad b2 bd 46 46 42 3d
       -0.09905485 0.042575344 -0.087245815 0.0474303
000310 62 d0 ac 3d 46 39 9f bd 0e 37 8c bc 1d 5e cd bd
       0.08438183 -0.07774596 -0.017116096 -0.10027716
000320 54 4e de bd 3b 8e 28 bd b0 60 d6 bd 34 a9 05 3c
       -0.10854784 -0.041151267 -0.104676604 0.008158017
000330 7e 90 d5 bd 30 df 1f 3d 44 61 d9 bd 06 cd 9e bd
       -0.1042795 0.039031208 -0.10614255 -0.07753949
000340 a9 19 37 bc a4 33 ab 3d bd 2d e9 bd 7e 21 2b bd
       -0.011175551 0.08359459 -0.11385677 -0.041779988
000350 50 4f 2c 3a 20 aa f2 3d 8e bc cd 3d 1d d6 c4 3d
       0.0006573098 0.11848855 0.100457296 0.09611151
000360 b5 4b cb 3c f8 21 5c 3d 68 8d df bd 27 67 18 bc
       0.024816373 0.053743333 -0.10915643 -0.009301937
000370 98 02 a4 3d 2c e6 d6 3d 06 20 40 3d 14 7b 07 3d
       0.08008307 0.104931206 0.04690554 0.03307636
000380 18 e8 38 bd f3 01 29 bd db 8d d2 3c f4 ac ea 3c
       -0.045143217 -0.041261625 0.025702408 0.028646924
000390 cf fc d6 bd fd 3c 75 3d d3 33 d0 3d 85 a2 55 bd
       -0.10497438 0.059872616 0.10166135 -0.052156944
0003a0 27 64 dc 3d 86 8e 41 bd 4f c7 08 3d d8 a6 57 3d
       0.1076129 -0.04725506 0.0333932 0.05264935
0003b0 45 5b c2 3c 22 e0 72 bd ea d3 b4 bd fa be d5 3c
       0.023725161 -0.05929578 -0.08829482 0.026092041
0003c0 c5 71 af 3c 1b ed 86 3d a8 b3 de 3c 9c ef 8e 3d
       0.021416554 0.06588193 0.027185276 0.069792956
0003d0 93 84 55 bd a3 f2 f9 bc 8f 35 00 3e a1 71 bc bd
       -0.052128386 -0.030511206 0.12520431 -0.092013605
0003e0 9d 7b ad 3d 47 d6 ce 3d 94 56 8d bc 33 a8 df bc
       0.08470843 0.10099464 -0.017253198 -0.027301883
0003f0 12 bf 02 bd 52 3e 99 3d 22 97 01 3e b9 03 c5 bc
       -0.0319205 0.0748259 0.12655309 -0.024049627

module.1.module.0.0.bias f4 [2]
000000 55 c8 3a 3d 20 49 7a bd
       0.045601208 -0.061104894

module.1.module.0.0.weight f4 [2, 256]
000000 90 39 91 3c ba 65 95 bc f4 e7 5d 3a 99 23 5c bd
       0.017727643 -0.018236984 0.00084650447 -0.053744886
000010 cc 1f c2 3a f6 b9 2e ba 5d 0f 18 3d 36 5a e4 ba
       0.0014810502 -0.00066652836 0.037124027 -0.0017421904
000020 81 f9 10 3d cd c9 f5 3a e2 82 3c bd 4d 2c 6f bd
       0.035394195 0.0018752158 -0.046023257 -0.058391858
000030 22 fc c0 bc d6 ce 87 3c 06 bc 29 bd e4 cd 74 3d
       -0.023557726 0.01657812 -0.04143908 0.059766665
000040 90 0a 94 3c ac b8 73 bc 70 02 95 bc d6 60 2c 3d
       0.018071443 -0.014875572 -0.018189639 0.042084537
000050 93 d5 b3 bc f3 0a 3f bd bb 31 6c bc dc 3b 3a 3c
       -0.021952426 -0.0466413 -0.014416154 0.011366811
000060 27 ea 6f bb d4 8f 4a bd 16 41 50 3d 51 8e a2 39
       -0.0036608072 -0.04945357 0.05084332 0.00031005082
000070 27 ab 47 3d 95 ef 43 3d 20 e5 b5 3b e5 50 48 3d
       0.048747208 0.047835905 0.0055509955 0.048905272
000080 84 47 09 bd eb 0d 80 3c ea 63 96 3c d8 63 0d 3d
       -0.03351547 0.015631637 0.01835819 0.034519047
000090 c2 c3 f7 3c 96 62 33 3d 70 6b 53 bd b5 fd b6 ba
       0.030244712 0.04379519 -0.051616132 -0.0013961109
0000a0 07 fd 86 bd 5a 7e 2a bd 5c 41 72 3d cf 14 86 3c
       -0.0659123 -0.041624404 0.059144363 0.016367344
0000b0 19 6d 36 bd 71 06 35 3d 6b 11 11 bd 87 48 b7 bc
       -0.044537637 0.044195596 -0.035417 -0.02237345
0000c0 85 1f 51 3d 6e 06 34 3d fd fe 88 3d a9 5d 18 bd
       0.05105545 0.043951444 0.0668926 -0.037198696
0000d0 47 96 0b bd 35 e6 6c 3c ee 18 66 3d 34 fc 4a 3b
       -0.034078863 0.0144591825 0.05617612 0.0030973079
0000e0 69 4c 77 3b 3c 89 fb bc 21 b9 3b 3d 6a 51 cb 3c
       0.0037734753 -0.030705087 0.04583085 0.024819095
0000f0 e1 06 05 bd 23 64 0f bd 05 46 a2 3c e5 8d 6d 3c
       -0.032477263 -0.035007607 0.019808779 0.014499162
000100 6a ae 2d 3d d2 02 8b 3d 4f 5e 0f 3d 35 af 19 bc
       0.042402662 0.06787647 0.03500205 -0.0093801515
000110 32 33 3c bc 9c 2c 5f bb f5 91 45 3d d7 98 a9 bc
       -0.011486815 -0.003405369 0.0482349 -0.020702763
000120 fa 16 4f 3d 3e ea 33 3d be 75 1a bc d4 9e 69 3d
       0.05055902 0.043924563 -0.009427486 0.057036236
000130 55 a3 a0 b9 a4 dc 81 3c 33 0d 25 3c 45 2a a2 bc
       -0.0003063927 0.01585228 0.010073948 -0.019795546
000140 c2 dc 24 3d 73 4c 4c bd 67 15 bf 3b c4 37 2a 3d
       0.040249594 -0.049877595 0.005831409 0.04155709
000150 7d a3 31 3b e1 b6 a9 bc 03 77 cf 3c 88 71 41 ba
       0.0027105503 -0.020717086 0.025325304 -0.0007379283
000160 8e cf d0 3c 5e 89 42 bd 80 6d b9 3c a0 c9 8f 3d
       0.025489595 -0.047494285 0.022635221 0.07020879
000170 81 13 62 3c 6d 0d 2e bd 9d a8 69 bc 4d ec 62 3d
       0.013798595 -0.042493273 -0.014261392 0.055401135
000180 ef 8c a8 bc b5 ae 18 3c a4 25 5a 3c ee f6 4d 3b
       -0.020575015 0.009318997 0.013314638 0.00314277
000190 50 4b 25 bd 7b a8 a1 3c f2 92 0d bd 2d 1d 84 3d
       -0.040355027 0.019733658 -0.034563966 0.06450877
0001a0 80 c8 35 bd 1e 54 95 3c f8 ad 57 bd 40 da 09 3d
       -0.044380665 0.018228587 -0.052656144 0.033655405
0001b0 d1 77 19 3d ff df 82 bd 40 4c a3 bc 80 8d 7b 3d
       0.03746778 -0.0639038 -0.01993382 0.06141424
0001c0 5f 5b 85 3c 90 9a 94 39 40 c0 51 3d e5 a5 e9 bc
       0.01627892 0.00028343918 0.051208735 -0.028521487
0001d0 fe 1b 17 3c 90 35 a0 3c a9 7e a8 3c 3b 51 2a bd
       0.009222982 0.01955679 0.020568209 -0.041581374
0001e0 4a 89 61 bd 01 f8 7b b8 38 0c 1f bc b5 42 0d 3d
       -0.05506257 -6.0074035e-05 -0.009707503 0.034487445
0001f0 e1 67 90 bc 12 7c 28 3d 39 ad 88 bd 48 d9 ef bc
       -0.017627658 0.041133948 -0.066736646 -0.029278412
000200 bb 52 df 3b 7a c7 bf bc 09 9b e0 3c c7 ec 3a bd
       0.006815282 -0.023410548 0.027417677 -0.045635965
000210 32 5f 3b bd 2d ae 3f bd 98 7d 07 3d 3c 1c 1b 3d
       -0.045745082 -0.046796966 0.03307876 0.037868723
000220 c1 49 87 3c 7a 44 ca bc 17 be 15 3c 5b a7 dd bc
       0.01651466 -0.024690855 0.009139559 -0.02705734
000230 43 97 17 3d b1 93 cb 3c 24 c5 27 3d ed f6 57 3d
       0.03700949 0.024850698 0.040959492 0.05272572
000240 ae 91 79 3d 4c a6 01 bd 99 a4 6c bd 9e aa 38 3d
       0.060929947 -0.031652734 -0.05777416 0.04508459
000250 f8 73 1b bd 55 f0 92 bc 4a ac b7 3c 19 5b 58 bd
       -0.037952393 -0.017936865 0.022421021 -0.052821252
000260 58 d1 c3 bc c2 7a 66 bb 45 59 33 bd a3 5a aa 3b
       -0.023903534 -0.0035168384 -0.043786306 0.005198793
000270 90 3c f4 3c a0 c3 6f bd 77 41 18 3d 3f 2d 49 3d
       0.029814035 -0.058536172 0.037171807 0.049115416
000280 96 38 40 bd 36 d2 47 bd 50 df 60 bd ea 3a 1b 3d
       -0.046928965 -0.048784457 -0.054900467 0.03789798
000290 55 68 5a bc c5 d4 3f 3c ac ac 04 bc 38 40 7b 3c
       -0.013330539 0.011708443 -0.008097809 0.015335135
0002a0 79 74 41 bd 78 36 bb bc be f2 40 3d ee 60 d4 bc
       -0.047230218 -0.022853121 0.047106497 -0.025925126
0002b0 93 38 84 bd 7b 36 de 3c 6a 3b 81 bd 92 78 0a bd
       -0.06456103 0.027125588 -0.063101605 -0.03380639
0002c0 aa cc 9a 3b c0 3a 58 bd cd 46 8a 3d 6b b5 53 bd
       0.004724105 -0.052790403 0.067517854 -0.051686686
0002d0 59 88 3d 3c 61 6a 04 bc 09 8d ea bc 35 49 98 bc
       0.011568152 -0.008082003 -0.028631704 -0.018589595
0002e0 7b b7 7e bc b6 48 63 3c ea 3e 83 bd 4c b1 53 3d
       -0.015546675 0.013872316 -0.06408484 0.051682755
0002f0 a3 78 04 3d f5 f0 1f bd 3f a5 24 bd c4 f4 37 bd
       0.03234161 -0.039048154 -0.040196653 -0.04491116
000300 55 4b e6 3c 45 b7 ea bb b3 eb 34 3d 31 fa 17 bd
       0.028112093 -0.0071629607 0.044170093 -0.037103835
000310 e2 73 0d 3d 72 5a 13 bd 0d 46 18 3d 0a 0e 2c 3c
       0.034534343 -0.035974927 0.03717618 0.010501394
000320 ed 06 6c bb 2d be d7 3c 17 15 14 bd 45 b0 2d 3d
       -0.003601487 0.0263358 -0.036152925 0.04240443
000330 68 71 33 3c 04 4f 74 bc 26 8a 12 3d 93 7c 9d 3c
       0.010952331 -0.014911417 0.03577628 0.01922444
000340 a0 d2 ae 3b 76 05 bb 3b fd ef 77 bd ad d7 f2 3c
       0.005335167 0.005707438 -0.060531605 0.029643858
000350 e2 3e 4d 3d 05 e3 a3 3a 08 b7 47 3c 24 1c 34 3d
       0.050108798 0.001250357 0.012189634 0.04397215
000360 9b 6d a3 bc 35 92 38 3d bb a1 20 39 ad 20 d5 ba
       -0.019949725 0.04506131 0.00015319038 -0.0016260348
000370 77 f9 1b bc 2b c3 6a bc e0 d4 00 3d 92 75 5a 3d
       -0.009519926 -0.014328758 0.031453013 0.05333478
000380 8a 0f 48 3d 20 d8 7a 3a e7 f3 7d bd c5 ad eb 3c
       0.048842944 0.00095689483 -0.06200018 0.028769383
000390 7b 52 bf bb 8c b8 4b 3d 71 26 74 bb a8 23 b0 bc
       -0.00583869 0.049736544 -0.0037254358 -0.021501377
0003a0 95 a9 df bc b4 dd 7f bd b3 4b 40 bb 1c 62 5d 3d
       -0.027302543 -0.062467292 -0.0029341995 0.054048643
0003b0 70 9e 26 3d cc 0b 0b 3d d9 a2 45 bd 7e 99 5a bd
       0.04067844 0.033946797 -0.048251007 -0.053369038
0003c0 c2 ea 22 3d 16 cc 01 3a 56 e0 81 3c 5b 45 a2 3c
       0.039774664 0.00049513706 0.015854042 0.019808462
0003d0 7d 0d bc bc f5 0c 07 3d 1d 80 b9 3c ce 17 f4 bb
       -0.02295565 0.03297134 0.022644097 -0.007449127
0003e0 16 f3 40 bd f7 1c 14 3d 68 81 54 bb dc dd 59 bd
       -0.047106825 0.036160436 -0.0032425765 -0.053190097
0003f0 7b 06 ff bc c1 36 e7 bb 41 dc 4f bd 0a 97 4f bc
       -0.03113102 -0.0070560877 -0.05074716 -0.012670288
