data/weights/weights_cartpole.pt (torch, 1291 bytes, 2 tensors)

linear.weight f4 [3, 10]
00000000: bd28 1bbb adb5 2d3e 1342 85be 4b4f 6ebe
00000010: 7270 f9bd ffaa ad3d a34e cdbb 2a60 803e
00000020: 12e5 e5bc 495f ab3d 3eb9 c3bd e49a 7ebd
00000030: ddad 9abe 5775 56be 257c 05be f1ec 3f3c
00000040: 2f04 003e 374c 423e 6d87 5bbe a702 0dbe
00000050: 5f3b eb3d 6c72 863e 8548 85bd f550 723e
00000060: 9ac6 50bd c60e 093d ba9a 923e a532 96be
00000070: f0da 4bbe 63f5 a3bd
-0.0023675405 0.16963835 -0.26026973 -0.23272435 -0.1217965 0.084798805 -0.0062654777 0.25073367
-0.02806333 0.083677836 -0.095568165 -0.062159434 -0.30210772 -0.20943199 -0.13035639 0.011714206
0.12501596 0.18974386 -0.2143838 -0.13770543 0.114859335 0.26259172 -0.06507973 0.23663695
-0.05097065 0.033461355 0.28633672 -0.29335514 -0.19907737 -0.08005788

linear.bias f4 [3]
00000000: a872 fcbd a1e3 8b3e 49e4 51be
-0.123265564 0.27322105 -0.2049724
